dqn.pth (torch, 63348 bytes, 6 tensors)

conv1.weight f4 [16, 1, 3, 3]
0	0x3e6b088f	0.22952484
1	0xbe83c58c	-0.25736654
2	0xbeb1ffa6	-0.34765357
3	0x3f094281	0.536171
4	0xbc76834b	-0.015045951
5	0x3e34eaa5	0.17667635
6	0x3eba8bb4	0.3643471
7	0xbe3dd1e8	-0.18537104
8	0x3dd2a03d	0.10284469
9	0x3d7d1688	0.061789066
10	0xbcf680ff	-0.030090807
11	0xbd4adb6e	-0.04952567
12	0x3d804a4d	0.06264172
13	0xbd27cc12	-0.0409661
14	0xbd9db80c	-0.0770112
15	0x3cbce89a	0.023060132
16	0x3cdf2606	0.02723981
17	0xbda64fe7	-0.08120709
18	0x3e06ebcf	0.13175891
19	0x3dfe887b	0.12428375
20	0x3ddd5fdd	0.108093
21	0xbe33ba33	-0.17551498
22	0x3dcd95ef	0.10038363
23	0xbb394c7f	-0.0028274355
24	0x3d8fbd50	0.0701853
25	0xbdbf2a45	-0.09334234
26	0x3dd1d28c	0.10245237
27	0xbdab148e	-0.0835353
28	0xbd57800d	-0.052612353
29	0xbb0fad72	-0.002192345
30	0x3bfec648	0.007775102
31	0x3da52231	0.08063162
32	0xbd548dcb	-0.051893037
33	0x3c5b9afa	0.0134036485
34	0x3c2b4551	0.010453538
35	0xbd1d839b	-0.038455587
36	0x3e871452	0.2638269
37	0x3e262f2b	0.1622893
38	0x3d27b0dc	0.04094015
39	0x3e5e19e0	0.21689558
40	0xbf04c9f9	-0.51870686
41	0xbe9687c7	-0.29400465
42	0x3d8a735f	0.067602865
43	0xbeef8901	-0.46784213
44	0x3ec15159	0.37757376
45	0x3ebf94fb	0.3741835
46	0x3e4b27ba	0.19839373
47	0xbec7882f	-0.38971087
48	0x3e84b951	0.25922635
49	0xbeae8cbe	-0.34091753
50	0xbe966114	-0.2937094
51	0x3e9bfb2c	0.30465066
52	0x3eb7b248	0.35878205
53	0xbec8094e	-0.390696
54	0x3d22600f	0.03964239
55	0x3dd4d5ef	0.10392367
56	0xbb35e46f	-0.0027754565
57	0x3d02017b	0.031739693
58	0xbc4c99fb	-0.012487884
59	0xbc66d172	-0.014088022
60	0x39af5a7a	0.0003344601
61	0xbddd39ce	-0.10802041
62	0x3caebb54	0.02132956
63	0xbae3ef3b	-0.0017390022
64	0x3cba702e	0.02275857
65	0x3da1c957	0.07899731
66	0xbda1a90e	-0.07893573
67	0xbb244a55	-0.002506872
68	0x3c9fd2cf	0.019509701
69	0xbc5342bc	-0.012894329
70	0xbd281a95	-0.041040976
71	0x3d1e254c	0.038609788
72	0xbce01364	-0.027352996
73	0xbd5e99ed	-0.054346014
74	0xbdc91c4e	-0.09819852
75	0x3dbf783d	0.093491055
76	0x3d17dc6a	0.037075438
77	0x3d1dfff4	0.038574174
78	0xbc0fe1ab	-0.008781831
79	0xbbee868e	-0.0072792238
80	0x3c30a278	0.010780923
81	0xbd21f1b6	-0.039537154
82	0xbd181277	-0.037126984
83	0xbd08d69c	-0.033407792
84	0xbc5c63dd	-0.013451544
85	0xbd1281e9	-0.035768423
86	0x3dd3bbb8	0.10338539
87	0x3c881e2c	0.01661595
88	0xbd11f0dc	-0.035630092
89	0xbc84a15b	-0.016190222
90	0x3deecd51	0.11660255
91	0xbcbc1fa2	-0.022964302
92	0x3c72ae7e	0.01481211
93	0x3da7bf3c	0.08190772
94	0xbc9646b9	-0.01834427
95	0xba8cd548	-0.0010744715
96	0x3a40674e	0.00073396123
97	0x3da83421	0.08213068
98	0xbc126eeb	-0.008937578
99	0x3db5f65b	0.08884879
100	0x3c271b0c	0.01019932
101	0xbda2b529	-0.0794471
102	0xbce6d41c	-0.028177314
103	0x3c6fad62	0.01462874
104	0x3c5a6eb5	0.013332059
105	0x3a5ea648	0.0008493406
106	0xbd9655ce	-0.07340585
107	0x3d335139	0.04377863
108	0x3ef5db8d	0.48019066
109	0x3efec238	0.49757552
110	0x3eb4d3e1	0.353179
111	0xbf01c5e3	-0.50692576
112	0x3e8e2e10	0.27769518
113	0x3d34aaa6	0.044108056
114	0x3e71d5bf	0.23616694
115	0xbea6869c	-0.32524574
116	0x3e8a946c	0.27066362
117	0x3ce10157	0.02746646
118	0xbdad6bee	-0.084678516
119	0x3d4d1738	0.05007097
120	0x3d0ab9b7	0.033868518
121	0x3dd0906f	0.101837985
122	0x3d7be636	0.061498843
123	0x3d55e3a1	0.052219037
124	0x3c9f9387	0.019479526
125	0xbd71dac8	-0.059046537
126	0x3dca6fb6	0.098845884
127	0x39e934cf	0.0004448057
128	0xbd4d5c4c	-0.05013685
129	0x3dc635b2	0.0967821
130	0xbcfcd7c2	-0.0308646
131	0xbcbca0fa	-0.023025978
132	0x3dd6f17c	0.10495278
133	0xbdfcbbfe	-0.12340544
134	0x3d979f8b	0.07403477
135	0xbdb1cdd6	-0.08681838
136	0x3e8c10bb	0.27356514
137	0xbece8ed2	-0.40343338
138	0xbdefe41a	-0.11713429
139	0x3e593508	0.21211636
140	0xbebe0ff0	-0.37121534
141	0xbe82c996	-0.25544423
142	0xbea4abfc	-0.32162464
143	0x3ed68e8d	0.41905633

conv1.bias f4 [16]
0	0xbc3ea23e	-0.011635361
1	0x3f421acd	0.75822145
2	0x3f23e688	0.6402364
3	0x3f3238fa	0.6961819
4	0xbd6bc42d	-0.057560135
5	0xbe4716a9	-0.19442238
6	0x3f0a18db	0.53944176
7	0x3f050d01	0.5197297
8	0x3f138bdd	0.5763529
9	0x3f2c5fd7	0.6733374
10	0x3f3f1408	0.7463994
11	0x3f380994	0.71889615
12	0xbdfbaf3d	-0.122892834
13	0x3f18044c	0.59381557
14	0x3f041014	0.51587033
15	0xbe17265d	-0.14760728

conv2.weight f4 [32, 16, 3, 3]
0	0xbe014e7e	-0.12627599
1	0xbdab5cc5	-0.08367304
2	0xbe39af99	-0.18133391
3	0xbe1bcc1d	-0.15214582
4	0xbd9a8a7a	-0.075459436
5	0xbe2cfca5	-0.16893251
6	0xbe5ff9f4	-0.21872693
7	0xbe2a1d01	-0.16612627
8	0xbe50e8b9	-0.20401277
9	0x3e9db396	0.30801076
10	0x3eac41cb	0.33643946
11	0x3e96967a	0.2941168
12	0x3eb176a3	0.34660825
13	0x3eada64f	0.33915946
14	0x3e8fc67a	0.28081113
15	0x3e9eb1b5	0.30994955
16	0x3e9eae78	0.30992484
17	0x3e87d8f9	0.26532724
18	0x3df33b7a	0.11876579
19	0x3e81fd16	0.25388402
20	0x3e63fa20	0.22263384
21	0x3e8cdde3	0.27513036
22	0x3df9c446	0.12195639
23	0x3e3952b7	0.1809796
24	0x3e1cbd61	0.15306617
25	0x3e27f53f	0.16402148
26	0x3e186d9c	0.14885563
27	0x3e5b9ee5	0.21447332
28	0x3e44b7ba	0.19210711
29	0x3e74d187	0.23908053
30	0x3e36656b	0.17812125
31	0x3e5ce5ac	0.21571988
32	0x3e5a086c	0.21292275
33	0x3e5e939f	0.21736
34	0x3e214ce1	0.15751983
35	0x3e137048	0.143983
36	0xbe6509a7	-0.22366963
37	0xbdf3caab	-0.1190389
38	0xbe12edc7	-0.14348517
39	0xbd58733d	-0.052844275
40	0xbe3b5b6b	-0.18296592
41	0xbdc077d4	-0.093978554
42	0xbe412caf	-0.18864702
43	0xbd8f0a0c	-0.06984338
44	0xbe161fe8	-0.14660609
45	0xbe9faa99	-0.31184843
46	0xbd91843c	-0.071053
47	0xbe6febd9	-0.23429812
48	0xbe364331	-0.17799069
49	0x3c320e09	0.010867604
50	0xbdcca68a	-0.09992702
51	0xbe493649	-0.19649614
52	0xbb9d753f	-0.0048052366
53	0xbe60d43a	-0.21955958
54	0x3dd1228a	0.10211666
55	0x3e2a49b1	0.16629674
56	0x3e3d8424	0.18507439
57	0x3e4d82c5	0.20069416
58	0x3e61bf65	0.22045667
59	0x3e4d4129	0.20044388
60	0x3e0be2eb	0.13660781
61	0x3e656da8	0.22405112
62	0x3e31b243	0.17353158
63	0x3e717478	0.23579586
64	0x3e03d3db	0.12873785
65	0x3e05b24a	0.13056293
66	0x3e8c7c4d	0.27438584
67	0x3e545609	0.20735945
68	0x3e8f15a1	0.2794619
69	0x3e180b66	0.14848098
70	0x3e304dfb	0.17217247
71	0x3e3e9ff8	0.1861571
72	0x3e17143f	0.14753817
73	0x3e6ed05e	0.23321673
74	0x3e42ed74	0.19035894
75	0x3ddbb535	0.10727922
76	0x3e5a89b2	0.21341589
77	0x3e205984	0.15659148
78	0x3e667028	0.22503722
79	0x3e1a73de	0.15083262
80	0x3e8c250a	0.2737201
81	0x3e86240a	0.2619937
82	0x3e28ca11	0.16483332
83	0x3e5ed00a	0.21759048
84	0x3e9c1771	0.30486634
85	0x3e54a030	0.20764232
86	0x3e3fd405	0.18733223
87	0x3e838fa6	0.25695533
88	0x3e416a7c	0.18888277
89	0x3e781d0f	0.24229835
90	0x3ea76695	0.3269545
91	0x3e6966b7	0.22793089
92	0x3e7a54df	0.24446438
93	0x3e9014a4	0.28140748
94	0x3e8ace4c	0.27110517
95	0x3e361e79	0.17785062
96	0x3ea8e81e	0.3298959
97	0x3e4a2f1b	0.19744532
98	0x3e924356	0.28566998
99	0x3e499618	0.19686162
100	0x3e2b4345	0.1672488
101	0x3e8ee761	0.27910903
102	0x3e75109a	0.23932114
103	0x3e529c8a	0.20567527
104	0x3e981cbf	0.29709432
105	0x3e6b4916	0.22977099
106	0x3ea0ff94	0.3144499
107	0x3ea2f2ad	0.31825772
108	0xbe3e403a	-0.18579188
109	0xbde0056d	-0.10938535
110	0xbe825676	-0.2545659
111	0xbe0a8382	-0.13526729
112	0xbd79531f	-0.060870286
113	0xbe449faa	-0.19201532
114	0xbe96b395	-0.29433885
115	0xbdfb80d5	-0.12280432
116	0xbe65b0d9	-0.22430743
117	0x3db9c5ab	0.09070905
118	0x3dcb581e	0.099289164
119	0x3e269ee7	0.16271554
120	0x3e1ee635	0.15517505
121	0x3e404d59	0.18779506
122	0x3dbe1865	0.09281997
123	0x3e6f18ce	0.23349306
124	0x3e1bae9b	0.15203325
125	0x3db14ab0	0.08656824
126	0x3e66eea1	0.22551967
127	0x3df78291	0.120854504
128	0x3e209532	0.15681913
129	0x3e5edb9c	0.21763462
130	0x3e05a285	0.13050278
131	0x3e24e5c3	0.16103272
132	0x3e369bcc	0.1783287
133	0x3d9b218f	0.0757476
134	0x3e2cbb93	0.16868429
135	0xbe2ba63e	-0.16762635
136	0xbe42cd8b	-0.19023721
137	0xbe96130a	-0.293114
138	0xbe0931a8	-0.13397849
139	0xbd15bbd5	-0.036556084
140	0xbdfdf497	-0.124001674
141	0xbe321157	-0.17389427
142	0xbe260544	-0.16212946
143	0xbe5687f6	-0.20950302
144	0xbdf19259	-0.11795492
145	0xbe2919e2	-0.1651378
146	0xbe643986	-0.22287568
147	0xbd9d0266	-0.07666473
148	0xbd8e5c2e	-0.06951176
149	0xbd9c34df	-0.07627272
150	0xbdb9ad6c	-0.09066281
151	0xbda2a408	-0.07941443
152	0xbda9fe61	-0.08300472
153	0x3e7953d4	0.24348384
154	0x3e6b75c9	0.2299415
155	0x3e872966	0.26398772
156	0x3e9b00a5	0.3027393
157	0x3eaeb7e8	0.34124684
158	0x3e80f8c3	0.2518979
159	0x3e4af715	0.19820817
160	0x3e8e57b3	0.27801284
161	0x3ea41113	0.32044277
162	0x3e30982f	0.17245553
163	0x3e629b44	0.22129542
164	0x3e81465d	0.25248995
165	0x3e0e447a	0.13893309
166	0x3e3a47c7	0.18191443
167	0x3e6cb8ae	0.23117325
168	0x3e13be16	0.14427981
169	0x3e6fb87b	0.23410217
170	0x3dee8472	0.11646356
171	0x3e8a6c49	0.2703574
172	0x3e8e990f	0.2785115
173	0x3e41d0a9	0.18927254
174	0x3e3c8e9f	0.1841378
175	0x3e1c353e	0.15254685
176	0x3e0fbe1c	0.14037365
177	0x3e90ec1a	0.2830513
178	0x3e2da6ec	0.16958207
179	0x3e835477	0.2565038
180	0xbe0af1a2	-0.13568738
181	0xbdb31e15	-0.08745972
182	0xbe903b40	-0.28170204
183	0xbdf1d7c0	-0.11808729
184	0xbc3921c2	-0.011299552
185	0xbd751151	-0.059830967
186	0xbe25f19b	-0.16205446
187	0xbd2a04a8	-0.041508347
188	0xbe3a4966	-0.18192062
189	0xbe7170c2	-0.2357817
190	0xbdc14770	-0.09437454
191	0xbdb7bf3b	-0.08972021
192	0xbd2c18d3	-0.04201586
193	0xbd2a7050	-0.041611016
194	0xbd1c6f46	-0.038192056
195	0xbe278afa	-0.16361609
196	0xbd0cb6ba	-0.03435395
197	0xbe10a3d2	-0.14124992
198	0x3e1075b5	0.14107402
199	0x3e4b9f13	0.19884901
200	0x3e5d336f	0.21601652
201	0x3e2dc48a	0.16969505
202	0x3e3cf09b	0.18451159
203	0x3dfe8f2c	0.124296516
204	0x3e7bd4bd	0.24592872
205	0x3e8ba1b0	0.27271795
206	0x3e4b07c2	0.19827178
207	0x3e840afc	0.2578963
208	0x3e79a5c3	0.2437964
209	0x3e311a7b	0.17295258
210	0x3e100b17	0.1406673
211	0x3e09ab9e	0.13444373
212	0x3e41e833	0.18936233
213	0x3e6b5e42	0.22985175
214	0x3e6806c3	0.2265883
215	0x3e1d561f	0.15364884
216	0x3e414595	0.188742
217	0x3e733d48	0.23753846
218	0x3e4bfd2b	0.19920795
219	0x3e8646a5	0.26225773
220	0x3e8c6a53	0.2742487
221	0x3e012165	0.12610395
222	0x3e80b1cb	0.25135645
223	0x3e3d5472	0.18489245
224	0x3e2ebea0	0.17064905
225	0x3e3293c6	0.17439184
226	0x3e90e1ea	0.2829736
227	0x3e983f85	0.29735962
228	0x3e98be3b	0.29832634
229	0x3e89a75b	0.26885495
230	0x3e881076	0.2657506
231	0x3e38f440	0.18061924
232	0x3e31841e	0.17335555
233	0x3e423109	0.18964018
234	0x3e70ab07	0.23502742
235	0x3e8353a6	0.25649756
236	0x3e9bfc56	0.30465955
237	0x3e65918b	0.22418801
238	0x3e7d6f52	0.24749497
239	0x3e3ca5cd	0.18422623
240	0x3e49e0ea	0.19714704
241	0x3e79ca56	0.24393591
242	0x3e47d2e8	0.19514048
243	0x3e326ad8	0.1742357
244	0x3e7593b0	0.2398212
245	0x3e79206a	0.24328771
246	0x3e4b6457	0.19862495
247	0x3e31f51c	0.17378658
248	0x3e906a2d	0.28206006
249	0x3e970578	0.2949636
250	0x3e2aeb53	0.16691332
251	0x3e89aa2c	0.26887643
252	0xbe6ebcdb	-0.2331423
253	0xbdef2cf4	-0.11678496
254	0xbda4144f	-0.08011686
255	0xbd764512	-0.060124464

conv2.bias f4 [32]
0	0x3ebeda1b	0.37275776
1	0x3ebb7a77	0.3661687
2	0x3ed05ee8	0.40697408
3	0x3eeec865	0.46637264
4	0x3ec2e216	0.38063115
5	0x3ee99d29	0.45627716
6	0x3eba3c71	0.36374238
7	0x3eac295a	0.336253
8	0x3ee8beab	0.45457968
9	0x3ea685f5	0.32524076
10	0x3eaa9bb1	0.33321908
11	0x3eb3aea2	0.35094172
12	0x3ee95c61	0.45578292
13	0x3ebba86b	0.3665193
14	0x3eb960bc	0.36206615
15	0x3eebaef5	0.4603192
16	0x3ef9a7fa	0.48760968
17	0x3eefa7f6	0.46807832
18	0x3ee546c2	0.44780546
19	0x3ee08ab6	0.43855828
20	0x3ecaba76	0.39595383
21	0x3ef75c5a	0.48312646
22	0x3ee0a150	0.43873072
23	0x3eca6867	0.39532778
24	0x3ef44f67	0.4771683
25	0x3edbe810	0.42950487
26	0x3ee94806	0.45562762
27	0x3ef50be4	0.47860634
28	0x3ec5b5cb	0.3861526
29	0x3ea2ff75	0.31835523
30	0x3ea949af	0.3306403
31	0x3eaf0ba4	0.3418857

fc.weight f4 [81, 128]
0	0xbe61cbce	-0.22050402
1	0xbdebfbd5	-0.115226425
2	0xbe3bd012	-0.18341091
3	0xbdf4df38	-0.11956638
4	0xbd6d6ea2	-0.057966836
5	0xbd855aae	-0.065114364
6	0xbe0caf56	-0.1373876
7	0xbd97ce18	-0.07412356
8	0xbe105806	-0.14096078
9	0xbdc19956	-0.09453075
10	0xbe231711	-0.15926768
11	0xbe266807	-0.16250621
12	0xbe4fd38e	-0.20295545
13	0xbe274d77	-0.16338144
14	0xbe746400	-0.23866272
15	0xbe03f63f	-0.12886904
16	0xbe02918d	-0.12750836
17	0xbe0cf854	-0.13766605
18	0xbe40ea7b	-0.18839447
19	0xbd97daa9	-0.07414753
20	0xbe543846	-0.20724592
21	0xbe11ebef	-0.14250158
22	0xbd99c7f0	-0.07508838
23	0xbdd526b4	-0.10407773
24	0xbd9b51ea	-0.07583983
25	0xbe2ad041	-0.16681005
26	0xbe0504f5	-0.12990172
27	0xbdf73c50	-0.120720506
28	0xbe0649c0	-0.13114071
29	0xbe08a177	-0.13342844
30	0xbdfddb03	-0.12395289
31	0xbe560839	-0.20901574
32	0xbe25c9aa	-0.1619021
33	0xbe728155	-0.23682149
34	0xbe13fd50	-0.144521
35	0xbe4821e0	-0.19544172
36	0xbda97b72	-0.082754984
37	0xbe1b33d6	-0.15156493
38	0xbdecbe1f	-0.115597
39	0xbe0a7bd7	-0.13523804
40	0xbda11fa4	-0.07867363
41	0xbdee110f	-0.116243474
42	0xbd9a944f	-0.07547819
43	0xbd8cbf8a	-0.06872471
44	0xbe3144bb	-0.17311375
45	0xbd7f4eed	-0.06233113
46	0xbda9cd91	-0.08291162
47	0xbe2bf52b	-0.16792743
48	0xbe44872f	-0.19192193
49	0xbdadfafc	-0.08495137
50	0xbe1d8e5d	-0.15386339
51	0xbe582b99	-0.21110381
52	0xbe05b276	-0.13056359
53	0xbe13928d	-0.14411373
54	0xbe1e26c5	-0.15444477
55	0xbe397718	-0.18111837
56	0xbe508e37	-0.2036675
57	0xbe0a63dc	-0.13514656
58	0xbe217a3b	-0.15769283
59	0xbdcc5856	-0.09977786
60	0xbdaf89c8	-0.085712016
61	0xbe3f4338	-0.18677986
62	0xbe3434c8	-0.1759826
63	0xbdcfcf74	-0.101469904
64	0xbe64e62d	-0.2235343
65	0xbe4f0f98	-0.20220792
66	0xbdddfe6e	-0.10839544
67	0xbdc7f67a	-0.097638085
68	0xbe52dd86	-0.20592317
69	0xbdbd622c	-0.092472404
70	0xbe808c3b	-0.25106987
71	0xbdaa56c6	-0.08317332
72	0xbe07e1ad	-0.13269682
73	0xbe15c1e3	-0.14624743
74	0xbdcc69ea	-0.09981139
75	0xbde4af57	-0.11166256
76	0xbe337d7f	-0.17528342
77	0xbdded547	-0.10880523
78	0xbe0a68de	-0.13516566
79	0xbe4807dd	-0.1953425
80	0xbd1c330d	-0.038134623
81	0xbe358f95	-0.17730553
82	0xbe096d53	-0.1342061
83	0xbe562dd5	-0.20915921
84	0xbdbc423d	-0.091923214
85	0xbd454bd8	-0.048168033
86	0xbe496440	-0.19667149
87	0xbe14ddbd	-0.14537711
88	0xbe6fe22f	-0.23426126
89	0xbe040441	-0.12892248
90	0xbe452353	-0.19251756
91	0xbe293e15	-0.16527589
92	0xbdf2d73f	-0.11857461
93	0xbe48d60c	-0.19612902
94	0xbdf66a0e	-0.12031947
95	0xbdfe7b21	-0.12425829
96	0xbd419928	-0.0472652
97	0xbdfa0c0b	-0.12209328
98	0xbe17a520	-0.14809084
99	0xbd2decef	-0.042462286
100	0xbd710b63	-0.05884875
101	0xbe6dce7b	-0.23223297
102	0xbe45b996	-0.19309077
103	0xbe9ebd32	-0.3100372
104	0xbe0dcf72	-0.13848665
105	0xbe06f0c7	-0.13177787
106	0xbd74ee3f	-0.05979752
107	0xbdac14ac	-0.0840238
108	0xbda22ac2	-0.07918312
109	0xbe66a794	-0.22524863
110	0xbdd27817	-0.102768116
111	0xbe6d2124	-0.23157173
112	0xbd4ac7eb	-0.049507063
113	0xbe38907e	-0.1802387
114	0xbe22d256	-0.1590055
115	0xbddc7dfa	-0.107662156
116	0xbdb25a47	-0.08708625
117	0xbdc65bc1	-0.096854694
118	0xbdb969bf	-0.090533726
119	0xbe389377	-0.18025003
120	0xbdbf24df	-0.093332045
121	0xbddcb8bc	-0.10777423
122	0xbddacea8	-0.10683948
123	0xbdaea6b7	-0.08527892
124	0xbe41b2ab	-0.18915813
125	0xbe311f68	-0.17297137
126	0xbe536ecd	-0.20647736
127	0xbe097419	-0.13423194
128	0xbd6fda98	-0.058558077
129	0xbe15411a	-0.14575616
130	0xbe4f2767	-0.20229875
131	0xbe7653bb	-0.24055378
132	0xbdd39cf7	-0.10332673
133	0xbe4f1ed2	-0.20226601
134	0xbe081687	-0.13289843
135	0xbdf541d9	-0.1197545
136	0xbe4011d7	-0.18756805
137	0xbe4ed0b4	-0.20196801
138	0xbe385e21	-0.18004657
139	0xbe237d28	-0.15965712
140	0xbe11a9b3	-0.14224891
141	0xbdd1a2be	-0.10236119
142	0xbe3b8620	-0.18312883
143	0xbdf598dc	-0.11992046
144	0xbe5115f5	-0.20418532
145	0xbe10bb08	-0.14133847
146	0xbdcfcb96	-0.10146253
147	0xbdf8f1e2	-0.121555105
148	0xbe35b01b	-0.1774296
149	0xbd13908b	-0.03602652
150	0xbd8162ef	-0.06317698
151	0xbde9f197	-0.11423033
152	0xbe4659dc	-0.19370216
153	0xbdeed84e	-0.116623506
154	0xbe1795d2	-0.14803246
155	0xbdf878aa	-0.1213239
156	0xbcfabe26	-0.030608248
157	0xbe1b069f	-0.15139244
158	0xbe6c4556	-0.23073325
159	0xbe2c5579	-0.1682948
160	0xbe0cf530	-0.13765407
161	0xbdc489ac	-0.09596571
162	0xbe4ec922	-0.20193914
163	0xbe3f333f	-0.18671893
164	0xbe23900b	-0.15972917
165	0xbd8e1ad8	-0.06938714
166	0xbd83621b	-0.064151965
167	0xbdcbc077	-0.09948819
168	0xbe0ad915	-0.13559373
169	0xbe087ddf	-0.13329266
170	0xbe00134d	-0.12507363
171	0xbe57a582	-0.2105923
172	0xbe332c02	-0.17497256
173	0xbd902e2b	-0.07040056
174	0xbe02794a	-0.1274158
175	0xbe523717	-0.20528828
176	0xbdd7d78d	-0.1053916
177	0xbdde44a8	-0.10852939
178	0xbe059edb	-0.1304888
179	0xbe65992f	-0.22421716
180	0xbe38b631	-0.1803825
181	0xbe45fdbd	-0.19335075
182	0xbe1ffeed	-0.1562459
183	0xbd93218e	-0.071841344
184	0xbd9cb5ac	-0.07651839
185	0xbd8f105a	-0.06985541
186	0xbdb770f7	-0.08957093
187	0xbdc63908	-0.096788466
188	0xbd816b7c	-0.06319329
189	0xbe23b838	-0.15988243
190	0xbdb9026c	-0.09033665
191	0xbe5c50cb	-0.21515195
192	0xbe4a1ff5	-0.19738753
193	0xbdddafcf	-0.108245485
194	0xbdf9b3e2	-0.12192513
195	0xbe6c0048	-0.23046982
196	0xbd8190e0	-0.06326461
197	0xbe191f94	-0.14953452
198	0xbe3bb11c	-0.1832928
199	0xbe73fb40	-0.23826313
200	0xbe4ae9be	-0.19815728
201	0xbe61f25a	-0.22065106
202	0xbe5f08a9	-0.21780647
203	0xbe16c69b	-0.147242
204	0xbe071d56	-0.13194785
205	0xbe1d6a99	-0.15372695
206	0xbe01cc3d	-0.12675567
207	0xbe1103fb	-0.14161675
208	0xbe22ec80	-0.1591053
209	0xbe417041	-0.18890478
210	0xbe240d41	-0.16020681
211	0xbdc37f0e	-0.09545718
212	0xbdb973de	-0.09055303
213	0xbdbf29ce	-0.093341455
214	0xbe020f55	-0.12701161
215	0xbdd1e174	-0.1024808
216	0xbe05dbd4	-0.13072139
217	0xbe89715e	-0.26844305
218	0xbe17a181	-0.14807703
219	0xbd9e2467	-0.07721787
220	0xbe25702e	-0.16156074
221	0xbe2b4e5f	-0.16729115
222	0xbdfb6b72	-0.12276353
223	0xbda46925	-0.08027867
224	0xbdb59ca4	-0.088677675
225	0xbe576380	-0.2103405
226	0xbd51e64a	-0.05124501
227	0xbe0a8c9d	-0.13530202
228	0xbe2bd809	-0.1678163
229	0xbe70dd9d	-0.23522039
230	0xbe344de9	-0.17607845
231	0xbddec81f	-0.10878014
232	0xbd986512	-0.07441153
233	0xbe5f47fd	-0.21804805
234	0xbd8fa44e	-0.070137605
235	0xbd9bc068	-0.07605058
236	0xbdc3b6b0	-0.09556329
237	0xbda0c09d	-0.07849238
238	0xbda87b7e	-0.08226679
239	0xbe65df15	-0.2244838
240	0xbe468f02	-0.1939049
241	0xbe136d53	-0.14397173
242	0xbdd2fdf8	-0.10302347
243	0xbde85738	-0.11344761
244	0xbe1bc9d2	-0.15213707
245	0xbde6ceed	-0.11269937
246	0xbe55864c	-0.20852011
247	0xbddb55a3	-0.10709693
248	0xbd86593d	-0.065599896
249	0xbdf08405	-0.11743931
250	0xbe1a7137	-0.1508225
251	0xbe20d039	-0.1570443
252	0xbe0c6ed1	-0.13714148
253	0xbe0e362f	-0.13887857
254	0xbd9f4b7f	-0.077780716
255	0xbddc8f34	-0.10769501

fc.bias f4 [81]
0	0xbde56b58	-0.11202115
1	0xbe051ced	-0.12999316
2	0xbe22e51e	-0.15907714
3	0xbe5b04ab	-0.213885
4	0xbe35a39d	-0.17738195
5	0xbde8cfcb	-0.11367758
6	0xbe3cb805	-0.18429573
7	0xbdac3ee4	-0.08410433
8	0xbd910ff7	-0.07083123
9	0xbe56cc77	-0.20976435
10	0xbe09cdb9	-0.13457383
11	0xbda62353	-0.08112206
12	0xbe53f376	-0.20698342
13	0xbd995588	-0.07487017
14	0xbe3c8f65	-0.18414076
15	0xbe3627a9	-0.17788567
16	0xbdc287d0	-0.094985604
17	0xbe23cfae	-0.15997192
18	0xbe17afc9	-0.1481315
19	0xbdf57fd9	-0.11987276
20	0xbde8f4bc	-0.113748044
21	0xbd714670	-0.058905065
22	0xbe2e80b2	-0.17041281
23	0xbe4246ef	-0.18972372
24	0xbe46fc08	-0.1943208
25	0xbddf6cc8	-0.1090942
26	0xbd20b234	-0.039232448
27	0xbe0a31ad	-0.13495512
28	0xbda3dbb0	-0.080008864
29	0xbdc927e2	-0.0982206
30	0xbe273620	-0.16329241
31	0xbe0bd4e1	-0.13655426
32	0xbe6518d4	-0.22372752
33	0xbe1e96c5	-0.15487202
34	0xbde0d83b	-0.10978743
35	0xbdd20349	-0.10254533
36	0xbe52c103	-0.2058144
37	0xbe13ff73	-0.14452915
38	0xbe80118c	-0.25013387
39	0xbe03fb8f	-0.1288893
40	0xbda1bc23	-0.07897212
41	0xbda48aa7	-0.08034258
42	0xbe2ec457	-0.17067085
43	0xbe1ecf8d	-0.15508862
44	0xbe13e780	-0.14443779
45	0xbe64a908	-0.22330105
46	0xbdcde488	-0.100533545
47	0xbe155eb7	-0.14586912
48	0xbdd2e9b0	-0.102984786
49	0xbda6a376	-0.081366464
50	0xbdd8798f	-0.105700605
51	0xbe4a2103	-0.19739155
52	0xbe178eaa	-0.14800516
53	0xbe24189a	-0.1602501
54	0xbdc06d67	-0.09395867
55	0xbe30b8fc	-0.17258066
56	0xbdb1fb48	-0.08690506
57	0xbe2c34d4	-0.16817027
58	0xbe29ebec	-0.16593903
59	0xbd95a6e9	-0.07307226
60	0xbdd481de	-0.10376333
61	0xbe322768	-0.17397845
62	0xbdb24aa8	-0.08705646
63	0xbcc1673d	-0.023608798
64	0xbd7554cd	-0.059895325
65	0xbde3d165	-0.11123923
66	0xbe23d282	-0.15998271
67	0xbe2423a3	-0.1602922
68	0xbe65353c	-0.22383589
69	0xbe55f7ec	-0.20895356
70	0xbe1c71e0	-0.15277815
71	0xbe35a1de	-0.17737529
72	0xbddd2b80	-0.107993126
73	0xbe39ff6c	-0.18163842
74	0xbdb48100	-0.08813667
75	0xbd1c9dee	-0.03823655
76	0xbd473105	-0.048630733
77	0xbd437b1a	-0.04772482
78	0xbd8b8241	-0.06811953
79	0xbcbe2fa4	-0.023216076
80	0xbe34b3f0	-0.17646766
