dqn.pth (torch, 152032 bytes, 6 tensors)

l1.weight f4 [128, 81]
0	0xbfa6dfb6	-1.3037021
1	0xbeb37c1a	-0.3505562
2	0x3fe6d517	1.803378
3	0x3dcea225	0.1008952
4	0x3f0354fd	0.51301557
5	0x3f04cb88	0.51873064
6	0xbf9b00ba	-1.2109597
7	0xc065eee6	-3.5927062
8	0xbe226f62	-0.15862802
9	0x3fd2dabe	1.6473005
10	0x3fc33848	1.5251551
11	0x3ff8f770	1.9450512
12	0xbdb01acb	-0.0859886
13	0x3fa3b3fb	1.2789301
14	0x4061ffab	3.5312297
15	0x3f849442	1.0357745
16	0x3f84907b	1.0356592
17	0xbf3fb6fe	-0.748886
18	0xbfde6152	-1.737345
19	0xc05f488a	-3.4888024
20	0xbf9fb5f9	-1.2477409
21	0x3fd3743a	1.6519845
22	0xbf7e942c	-0.9944484
23	0xc016d0de	-2.3564982
24	0xbf8642a3	-1.0489086
25	0x3f5e41fd	0.8681944
26	0xbea1603c	-0.31518734
27	0xbe199628	-0.14998686
28	0xbfaa0850	-1.3283787
29	0x3e92e0ba	0.28687078
30	0x3f0a9378	0.5413127
31	0xbf29aab8	-0.6627612
32	0xbfbd6c53	-1.4798683
33	0xbf93e3d4	-1.1553903
34	0xbfc396ad	-1.5280358
35	0xbf444363	-0.76665324
36	0xbe399c5e	-0.18126056
37	0xbf149f45	-0.58055526
38	0xbf62f6dd	-0.88657933
39	0x3fb9f858	1.4528913
40	0xbfca1052	-1.578623
41	0x3f0bb94e	0.5457963
42	0x3f15bf98	0.58495474
43	0x3eb4bf79	0.35302332
44	0xbfcbae46	-1.5912559
45	0x3eeab07d	0.45837775
46	0xbf861d17	-1.0477628
47	0xc00229bb	-2.033797
48	0x3eb343fd	0.35012808
49	0x3fc5e4e6	1.5460479
50	0xbfd5a508	-1.6690989
51	0xbe8cc8c4	-0.27496922
52	0xbf9061b5	-1.1279818
53	0xbfa368e0	-1.276638
54	0x406dcebb	3.7157428
55	0xbfcede48	-1.6161585
56	0x3f78c3ae	0.97173584
57	0xbe49ac68	-0.19694674
58	0x3f67a354	0.90483594
59	0x3edb0760	0.42779064
60	0x3f2cae3e	0.6745337
61	0x3fda62ba	1.7061379
62	0xbfd3fa2c	-1.6560721
63	0xbf6c9b71	-0.92424685
64	0x3ea0a70e	0.31377453
65	0x4069ecd7	3.6550806
66	0x3f582392	0.84429276
67	0xbd74bde7	-0.059751417
68	0xbe0616a1	-0.1309457
69	0x3fa64369	1.2989322
70	0x3f420741	0.7579232
71	0x3ef0ee08	0.47056603
72	0x3fdffbc8	1.7498713
73	0xbf970b89	-1.1800395
74	0x3faf3aa1	1.3689767
75	0x3f65d46d	0.8977726
76	0xbf1e55dd	-0.61849767
77	0x3f9daf6b	1.2319158
78	0xc0796e2c	-3.8973494
79	0xbed23954	-0.41059363
80	0x40788cc4	3.8835917
81	0xbf95a356	-1.1690471
82	0xbe7aa0af	-0.24475358
83	0x3feec97f	1.8655242
84	0x3ee0964d	0.4386467
85	0x3de053ba	0.109534696
86	0x3f4dffc4	0.8046839
87	0xbf957c82	-1.1678622
88	0xc0666b5f	-3.6003034
89	0xbea69192	-0.32532936
90	0x3fdfeeab	1.7494711
91	0x3fc12dc0	1.5092087
92	0x4007c14e	2.1211734
93	0x3e6853fb	0.22688286
94	0x3f7e1b0f	0.9926004
95	0x406aa206	3.6661391
96	0x3f6de9da	0.92934954
97	0x3fb1a371	1.3878003
98	0xbf5e25cb	-0.8677642
99	0xbfcac350	-1.5840855
100	0xc0727032	-3.7880979
101	0xbf9a643f	-1.2061843
102	0x3fbb0c5e	1.4613149
103	0xbf4255d7	-0.7591223
104	0xc01a2ec6	-2.4091048
105	0xbf79108c	-0.97290874
106	0x3f9852b6	1.1900241
107	0xbeb3ac12	-0.35092217
108	0xbedb9c9f	-0.4289293
109	0xbfcff7ec	-1.6247535
110	0x3dec7455	0.11545626
111	0x3f3b6a69	0.73209244
112	0xbf12bb66	-0.573172
113	0xbfcecb43	-1.615578
114	0xbf9816c7	-1.1881951
115	0xbfad4ccb	-1.353906
116	0xbf2b7ade	-0.66984355
117	0xbdaf296f	-0.08552825
118	0xbecf98c0	-0.40546227
119	0xbf838954	-1.0276284
120	0x3fd6d3d9	1.6783401
121	0xbfcce98c	-1.6008773
122	0x3f0c4c0e	0.5480355
123	0x3f02c696	0.5108427
124	0x3ea5f6d8	0.3241489
125	0xbfab7d69	-1.3397647
126	0x3ea9cf5d	0.33166018
127	0xbf7e0626	-0.9922813
128	0xbfeabeab	-1.8339437
129	0x3ebd4679	0.3696783
130	0x3fc69a29	1.5515796
131	0xbfb2200e	-1.3916032
132	0xbf02dd83	-0.5111925
133	0xbf7b1510	-0.98079014
134	0xbf98b975	-1.1931597
135	0x40706325	3.7560513
136	0xbfc9205b	-1.5712999
137	0x3faa6b2d	1.3313957
138	0xbe0adddc	-0.13561195
139	0x3f89734f	1.0738314
140	0x3eafef3f	0.34362218
141	0x3f58519e	0.8449954
142	0x3fd20475	1.640761
143	0xbfd38d48	-1.6527491
144	0xbf9741f9	-1.1817008
145	0x3e9d8825	0.30767933
146	0x406a494e	3.6607242
147	0x3ef50920	0.47858524
148	0xbe378490	-0.17921662
149	0xbe2270c2	-0.15863326
150	0x3f88d9f8	1.0691519
151	0x3f90c6f8	1.131072
152	0x3f081667	0.53159183
153	0x3fd98e91	1.6996633
154	0xbf8ac931	-1.0842649
155	0x3fae8028	1.363286
156	0x3f855af2	1.0418379
157	0xbf41b6d0	-0.75669575
158	0x3f6fedb7	0.937221
159	0xc080b59f	-4.0221705
160	0x3da64f02	0.08120538
161	0x40788a44	3.883439
162	0xbfaea2d4	-1.3643441
163	0xbe093a3b	-0.1340112
164	0x3fd8616d	1.6904732
165	0x3e12fb90	0.14353776
166	0x3ea459ef	0.32099864
167	0x3f432fe8	0.76244974
168	0xbf968b32	-1.1761229
169	0xc06f6e5a	-3.7411103
170	0x3bb64ba6	0.005563217
171	0x3fdbaa62	1.7161372
172	0x3fc0b3b3	1.505484
173	0x3fcddc46	1.6082847
174	0xbe18c04b	-0.14917104
175	0x3fb47aa5	1.4099928
176	0x406966df	3.6469038
177	0x3f96c2dc	1.1778216
178	0x3f8fc10b	1.1230787
179	0xbf99e7f9	-1.2023917
180	0xbfbcb463	-1.474255
181	0xc06354c2	-3.5520482
182	0xbfc05988	-1.5027323
183	0x3ff426a4	1.9074292
184	0xbf7c5610	-0.9856882
185	0xc01baf9c	-2.4325933
186	0xbf366205	-0.71243316
187	0x3f8b5454	1.088511
188	0xbe584d92	-0.2112334
189	0xbec2482b	-0.37945685
190	0xbf91e03c	-1.1396556
191	0x3ef8b498	0.48575282
192	0x3f272610	0.65292454
193	0xbf518b2d	-0.8185299
194	0xbfcfe7df	-1.6242636
195	0xbf9b8ce2	-1.2152369
196	0xbfc8ba81	-1.5681916
197	0xbf3d8913	-0.74037284
198	0xbddf5853	-0.109055184
199	0xbf57c932	-0.84291375
200	0xbf8db895	-1.1071955
201	0x3fbff83b	1.4997629
202	0xbf9cdae4	-1.22543
203	0x3f081c0a	0.53167784
204	0x3ea245dc	0.31693923
205	0x3e9f4975	0.3111073
206	0xbfbc5777	-1.4714192
207	0x3ef95cb3	0.48703536
208	0xbf545670	-0.82944393
209	0xbfe9783b	-1.8239816
210	0x3e806fd0	0.25085306
211	0x3fe475bd	1.7848431
212	0xbfbd84a9	-1.480611
213	0xbf122692	-0.57090104
214	0xbf9e5101	-1.236847
215	0xbf8ae0e8	-1.0849886
216	0x40635fd1	3.5527232
217	0xbfc6c896	-1.5529964
218	0x3f5a6d90	0.8532343
219	0xbe0cacd1	-0.13737799
220	0x3f7675ac	0.96273303
221	0x3e5742e0	0.21021605
222	0x3f47ad2e	0.77998626
223	0x3fbbe7f2	1.4680159
224	0xbfbfe94c	-1.4993072
225	0xbf5f56a1	-0.8724156
226	0x3f12f58f	0.5740594
227	0x40656ab7	3.5846384
228	0x3f5cef58	0.8630271
229	0x3dbd452b	0.09241708
230	0xbdd1060f	-0.10206234
231	0x3fc07e33	1.5038513
232	0x3f73175b	0.9495751
233	0x3edf09ff	0.43562314
234	0x3ff7f2e5	1.9371
235	0xbf8677d1	-1.0505315
236	0x3fac1a24	1.3445477
237	0x3f2f03b6	0.6836504
238	0xbf49052c	-0.78523517
239	0x3f65b789	0.8973318
240	0xc0731693	-3.7982528
241	0xbed12480	-0.4084816
242	0x407a987f	3.9155576
243	0xbf9f0895	-1.2424494
244	0xbec2cc07	-0.38046286
245	0x3fb73c1a	1.4315217
246	0x3e8ca6b9	0.2747095
247	0x3ec6046e	0.38675255
248	0x3ebb379f	0.36565873
249	0xbf97aa06	-1.1848762
250	0xc046e054	-3.107442
251	0xbef8d96b	-0.48603377
252	0x3fd270eb	1.644071
253	0x3fcd6319	1.6045867
254	0x3fdaf0ba	1.7104714
255	0xbec0e7eb	-0.3767694

l1.bias f4 [128]
0	0x40833363	4.100023
1	0x40810731	4.032128
2	0x40833e98	4.101391
3	0x40808755	4.01652
4	0x406c21eb	3.6895702
5	0x40795e5c	3.8963842
6	0x40845b5c	4.1361523
7	0x40785557	3.8802087
8	0x4085533c	4.1664104
9	0x406876e2	3.632256
10	0x407e0b72	3.9694486
11	0x4084e02b	4.1523643
12	0x40815797	4.041942
13	0x40842ef6	4.1307325
14	0x4081d8e0	4.057724
15	0x40815461	4.04155
16	0x40816f27	4.0448184
17	0x40853211	4.1623616
18	0x4067eb76	3.6237464
19	0x408052be	4.0101004
20	0x407bb65a	3.9330049
21	0x4080d869	4.0264173
22	0x408251bd	4.072478
23	0x40802839	4.00491
24	0x4081b7fa	4.053708
25	0x40854b16	4.165416
26	0x407c8a09	3.945925
27	0x4071ec05	3.7800305
28	0x40816901	4.044068
29	0x40848876	4.141658
30	0x407efad7	3.98406
31	0x40836d31	4.107079
32	0x4079a089	3.9004233
33	0x4075affc	3.8388662
34	0x40683e9e	3.6288218
35	0x40790e28	3.891489
36	0x40841fef	4.128898
37	0x407d390c	3.9566069
38	0x4085bd1f	4.179336
39	0x4083401e	4.101577
40	0x406d1370	3.7043114
41	0x40832d9f	4.099319
42	0xbec0dbe7	-0.37667772
43	0x406a29d2	3.6588025
44	0x40857193	4.170114
45	0x40850bca	4.157689
46	0x408245ce	4.071021
47	0x406ef1c7	3.733507
48	0x40829de6	4.0817747
49	0x40810def	4.032951
50	0x408391e7	4.1115603
51	0x4081c1ae	4.0548925
52	0x406df85d	3.718284
53	0x40845c36	4.136256
54	0x40849233	4.1428466
55	0x40838272	4.1096735
56	0x40789ace	3.8844485
57	0x4082b74a	4.084874
58	0x407fbc6d	3.9958756
59	0x40762023	3.8457115
60	0x407410d2	3.8135266
61	0x408479f3	4.1398864
62	0x407fbded	3.9959671
63	0x408312b7	4.0960345
64	0x403d14cf	2.954395
65	0x407287d6	3.7895408
66	0x40808172	4.0158014
67	0x4082527d	4.0725694
68	0x407bcdd6	3.9344382
69	0x4087b8d3	4.2413116
70	0x4079002f	3.8906362
71	0x407f9b37	3.9938486
72	0x4079d908	3.9038715
73	0x4081fd22	4.06215
74	0x40651b85	3.5798047
75	0x407e5052	3.9736524
76	0x407dc992	3.9654279
77	0x4062bde5	3.5428402
78	0x4083885b	4.110395
79	0x407559b9	3.8336012
80	0x407a9c3a	3.9157853
81	0x408350a2	4.103593
82	0x40816660	4.043747
83	0x4072ad25	3.791818
84	0x408084d5	4.016215
85	0x407c29ac	3.9400434
86	0x4075a6ae	3.8382983
87	0x4081c074	4.054743
88	0x3fef2d31	1.8685666
89	0x4074a45f	3.8225324
90	0x406b101d	3.6728585
91	0x40797874	3.8979769
92	0x4081aafb	4.0521216
93	0x407c6e02	3.9442143
94	0x40777e57	3.8670862
95	0x4081899b	4.0480475
96	0x408250aa	4.0723467
97	0x4082714f	4.0763316
98	0x4082560f	4.073005
99	0x4074b21a	3.8233705
100	0x4073d33c	3.8097677
101	0x408521be	4.160369
102	0x40840a10	4.1262283
103	0x40704eb2	3.7548032
104	0x4084ba54	4.147745
105	0x40745892	3.817906
106	0x406e7bff	3.7263181
107	0x4082e2a9	4.0901685
108	0x4076639f	3.8498304
109	0x40818056	4.046916
110	0x4082d5cc	4.0885983
111	0x40834466	4.1020994
112	0x406ff32e	3.7492175
113	0x407628a9	3.8462317
114	0x406dc2bb	3.7150104
115	0x4069c2e9	3.6525214
116	0x406f8cd0	3.7429695
117	0x4081d091	4.05671
118	0x4084af8f	4.1464305
119	0x4086bd4e	4.2106085
120	0x408614af	4.190025
121	0x40735b48	3.8024464
122	0x408174e9	4.0455213
123	0x40778271	3.8673365
124	0x4085ffab	4.1874595
125	0x406f8f08	3.743105
126	0x4023e971	2.5611231
127	0x408448db	4.1338935

l2.weight f4 [128, 128]
0	0x407c89b2	3.9459043
1	0x40798ebf	3.8993375
2	0x40763942	3.8472447
3	0x4081a10e	4.05091
4	0x406c1d0a	3.6892724
5	0x406547f1	3.582516
6	0x4084a7bf	4.145477
7	0x40693e04	3.6444101
8	0x4079533d	3.8957055
9	0x4076d2c8	3.856615
10	0x40796a4e	3.8971133
11	0x4076a967	3.8540895
12	0x4072449b	3.7854373
13	0x40791d3a	3.8924088
14	0x4071307d	3.7685845
15	0x407ba003	3.9316413
16	0x4073c0b0	3.8086357
17	0x407b5a17	3.9273736
18	0x406d1e5e	3.7049785
19	0x406ef830	3.7338982
20	0x406c974f	3.6967351
21	0x40807a71	4.0149465
22	0x407faeb4	3.995038
23	0x407c448c	3.9416838
24	0x40838de0	4.1110687
25	0x4081754d	4.045569
26	0x4078e19c	3.88877
27	0x406c69f1	3.6939662
28	0x40763c8e	3.847446
29	0x4077f6cc	3.8744383
30	0x406c9afd	3.6969597
31	0x407ece4c	3.9813414
32	0x406b95aa	3.6810098
33	0x407354e3	3.802056
34	0x4072d272	3.7940946
35	0x407d119f	3.9542005
36	0x4083609f	4.1055446
37	0x4077941c	3.8684149
38	0x40836ccf	4.1070323
39	0x40745b08	3.818056
40	0x40768b4f	3.8522527
41	0x4077213d	3.8614037
42	0x3d93e564	0.07221487
43	0x40768512	3.851872
44	0x40808f5c	4.0175
45	0x4083b34a	4.115636
46	0x4078e42f	3.8889272
47	0x40694fb3	3.6454895
48	0x407be544	3.9358683
49	0x40756686	3.8343825
50	0x406ca65b	3.6976535
51	0x407448a9	3.8169348
52	0x40704100	3.7539673
53	0x4080223d	4.0041795
54	0x40749821	3.8217852
55	0x40768527	3.851877
56	0x40772421	3.8615801
57	0x4074598a	3.817965
58	0x40733f7d	3.80075
59	0x40755098	3.833044
60	0x406ce5ef	3.701534
61	0x40812674	4.035944
62	0x4081d981	4.057801
63	0x4069ff35	3.6562016
64	0x405fc4fb	3.4963977
65	0x406e3c63	3.7224357
66	0x406d3f11	3.7069743
67	0x40773221	3.8624346
68	0x407513f0	3.829342
69	0x4078f668	3.8900394
70	0x4077c4de	3.8713908
71	0x4072012e	3.781322
72	0x4065b245	3.5890057
73	0x407aa023	3.916024
74	0x4072a828	3.7915134
75	0x4081566b	4.041799
76	0x4075c388	3.8400593
77	0x406e340d	3.721927
78	0x408032c3	4.0061965
79	0x406c9a3b	3.6969135
80	0x4073b86f	3.808132
81	0x407b1d89	3.9236777
82	0x407aeec0	3.9208221
83	0x406f22d3	3.7365005
84	0x4066af8d	3.6044648
85	0x40739423	3.8059165
86	0x40816e9b	4.0447516
87	0x406de4f3	3.717099
88	0x4012b010	2.291996
89	0x4074624f	3.8185003
90	0x406bc007	3.6835954
91	0x406b1126	3.6729217
92	0x40791b33	3.892285
93	0x407f36dd	3.9877236
94	0x406e801b	3.726569
95	0x407cd5d6	3.9505515
96	0x407b46ac	3.9261885
97	0x406b68eb	3.6782787
98	0x406dfa41	3.7183993
99	0x406c6ff1	3.6943324
100	0x40768a6b	3.8521984
101	0x4080eaa9	4.028645
102	0x407c940e	3.9465365
103	0x40786ff0	3.8818321
104	0x407d6611	3.9593546
105	0x40697ac4	3.648118
106	0x407219a9	3.7828162
107	0x407b1eda	3.923758
108	0x407523c8	3.830309
109	0x40765d3d	3.8494408
110	0x40792747	3.8930223
111	0x407beefb	3.9364612
112	0x40740ac0	3.8131561
113	0x406cedb9	3.7020094
114	0x40615f5a	3.5214448
115	0x406f0fa4	3.7353296
116	0x4069cc10	3.65308
117	0x4077b48f	3.8703954
118	0x4080aacd	4.0208497
119	0x4086b8c6	4.2100554
120	0x40828d97	4.079784
121	0x4081cc41	4.0561833
122	0x407225af	3.78355
123	0x406c8458	3.6955776
124	0x4086d3c5	4.213351
125	0x4066e451	3.6076853
126	0x4036e2b8	2.8575878
127	0x407d2cf7	3.9558694
128	0x40799762	3.8998647
129	0x40745d91	3.8182108
130	0x4075ac34	3.8386354
131	0x407cefe9	3.952143
132	0x4077b5b2	3.8704648
133	0x4077e4ea	3.8733468
134	0x407e7552	3.9759107
135	0x40701396	3.7511954
136	0x40805705	4.0106225
137	0x407a9c20	3.915779
138	0x4079b6e8	3.9017887
139	0x4070d844	3.7631998
140	0x4074c843	3.824723
141	0x407d6bcb	3.9597042
142	0x40768bc5	3.8522809
143	0x408062ec	4.0120754
144	0x4077afc7	3.8701036
145	0x408170de	4.0450277
146	0x4078fa13	3.8902633
147	0x406f5308	3.7394428
148	0x4071f203	3.7803962
149	0x408009db	4.001203
150	0x407c6147	3.9434373
151	0x4084d496	4.1509504
152	0x407454e3	3.817681
153	0x407f7978	3.9917889
154	0x40758121	3.8360064
155	0x40734e2c	3.8016462
156	0x40736c6c	3.8034925
157	0x407c4e06	3.9422622
158	0x40767c88	3.8513508
159	0x4078734f	3.8820379
160	0x40788b82	3.883515
161	0x4080a4bd	4.0201097
162	0x4079d770	3.9037743
163	0x407c8a5f	3.9459455
164	0x4076b2ea	3.85467
165	0x4077bd15	3.8709157
166	0x4083db5d	4.1205277
167	0x407b6f9e	3.9286876
168	0x4080aa00	4.020752
169	0x407c9fdc	3.947257
170	0xbdb9b05b	-0.0906684
171	0x407284b5	3.7893498
172	0x4076991c	3.853095
173	0x40731dee	3.7987018
174	0x407bda84	3.9352121
175	0x406e4d35	3.7234623
176	0x4074c2fa	3.8244004
177	0x4076fac7	3.8590562
178	0x4078081c	3.875495
179	0x4075cb9d	3.8405526
180	0x4078b287	3.8858964
181	0x407ffe69	3.999903
182	0x406d72e4	3.7101374
183	0x407ae06c	3.9199476
184	0x407aa9b7	3.9166086
185	0x407b3c17	3.9255426
186	0x4072b396	3.792211
187	0x40806684	4.012514
188	0x407b6dcd	3.9285767
189	0x4073ee3c	3.8114157
190	0x407e6c83	3.975373
191	0x406b8567	3.6800172
192	0x40561119	3.3447936
193	0x4076a4ae	3.8538013
194	0x4075c0d5	3.8398945
195	0x4076a9f0	3.8541222
196	0x40764d7e	3.8484797
197	0x40816357	4.0433764
198	0x407b4faa	3.9267373
199	0x406fc099	3.7461302
200	0x4071731d	3.772651
201	0x40807848	4.014683
202	0x407dcc5d	3.9655983
203	0x4088fed3	4.2811065
204	0x407bbb48	3.9333057
205	0x40771e13	3.8612106
206	0x407464cd	3.8186524
207	0x4076656e	3.8499408
208	0x407f0dc2	3.9852147
209	0x4073541d	3.8020089
210	0x4076a536	3.8538337
211	0x407abcb3	3.9177673
212	0x40711526	3.7669158
213	0x407f3fe7	3.9882753
214	0x4075b0c3	3.8389137
215	0x4076959c	3.8528814
216	0x400a9c63	2.165795
217	0x407e0538	3.9690685
218	0x40801c34	4.003443
219	0x407bedeb	3.9363964
220	0x407bd3de	3.9348063
221	0x4080c99e	4.0246115
222	0x4073ceac	3.8094893
223	0x407d6105	3.9590466
224	0x4072001c	3.7812567
225	0x40722a03	3.7838142
226	0x407a9ad5	3.9157002
227	0x407b15df	3.92321
228	0x40820be7	4.063953
229	0x40752819	3.8305724
230	0x407ec4db	3.980765
231	0x407f63a7	3.9904573
232	0x40807446	4.0141935
233	0x4076c9af	3.8560598
234	0x407feccb	3.9988277
235	0x4077132a	3.8605447
236	0x4078282f	3.8774526
237	0x4071a638	3.7757702
238	0x407afe58	3.921774
239	0x407fbbe4	3.995843
240	0x407af48e	3.9211764
241	0x4078750d	3.8821442
242	0x406faead	3.7450364
243	0x407889e0	3.8834152
244	0x408079c1	4.0148625
245	0x40791d34	3.8924074
246	0x40741f2c	3.8144026
247	0x407771e3	3.866326
248	0x407d25e1	3.955437
249	0x407e424b	3.9727962
250	0x407ffb6c	3.9997206
251	0x4076f7e7	3.8588808
252	0x407e1c41	3.9704745
253	0x406cab8d	3.6979706
254	0x40304063	2.7539299
255	0x407a093a	3.9068131

l2.bias f4 [128]
0	0x407b5158	3.9268398
1	0x4069287c	3.643096
2	0x4061bcde	3.5271525
3	0x40713a75	3.769193
4	0x4072f9d2	3.7964978
5	0x4069d95f	3.6538923
6	0x407b6aed	3.9284012
7	0x4069f006	3.6552749
8	0x407b2ccc	3.9246092
9	0x406f8ae2	3.7428517
10	0x4077b976	3.8706946
11	0x4074383d	3.8159325
12	0x4067021f	3.6095045
13	0x406cc106	3.6992812
14	0x406d933c	3.7121115
15	0x406e6294	3.7247667
16	0x4061903b	3.5244281
17	0x407532f5	3.8312352
18	0x406ba41c	3.6818914
19	0x4073489e	3.8013072
20	0x4071ff85	3.7812207
21	0x4072a1db	3.7911289
22	0x40727dd8	3.788931
23	0x406fa56b	3.7444713
24	0x40716321	3.7716753
25	0x406ef0b1	3.7334406
26	0x407322d7	3.7990015
27	0x406bdda2	3.6854024
28	0x406d1062	3.704125
29	0x40708ade	3.7584758
30	0x40606066	3.5058837
31	0x40766d93	3.8504379
32	0x4071b5dd	3.776725
33	0x40652d8a	3.5809045
34	0x407205e1	3.7816088
35	0x4062fdf1	3.5467494
36	0x40712f88	3.768526
37	0x4067a07a	3.6191697
38	0x4073bff5	3.8085911
39	0x406dc000	3.7148438
40	0x4072fc4e	3.7966495
41	0x40653621	3.5814288
42	0x406db52d	3.714183
43	0x40705102	3.7549443
44	0x406ac219	3.6680968
45	0x4068a09a	3.6348023
46	0x4073acbc	3.8074179
47	0x40721115	3.7822926
48	0x406e2553	3.721028
49	0x4069efbb	3.655257
50	0x406990a9	3.6494544
51	0x406df94e	3.7183414
52	0x4072371a	3.7846131
53	0x407133dd	3.7687905
54	0x406a6f76	3.663053
55	0x4068570d	3.6303132
56	0x40755f77	3.8339517
57	0x406d3697	3.706457
58	0x406801e5	3.6251156
59	0x406d88f8	3.711485
60	0x4075ba38	3.839491
61	0x406dd392	3.7160382
62	0x406f941a	3.7434144
63	0x4066ad33	3.6043212
64	0x40753ce2	3.831841
65	0x40745e13	3.8182418
66	0x40686cfe	3.6316524
67	0x406f0e2f	3.7352407
68	0x4073ed00	3.8113403
69	0x406d71a5	3.7100613
70	0x406a214d	3.6582825
71	0x406bc405	3.683839
72	0x40734760	3.8012314
73	0x406c2b1d	3.6901314
74	0x40752d9e	3.8309093
75	0x40729a97	3.7906854
76	0x40709451	3.7590525
77	0x4065bb56	3.589559
78	0x406935d4	3.6439104
79	0x40765f4c	3.8495665
80	0x4074c7e8	3.8247013
81	0x40702c32	3.7526975
82	0x406f0d44	3.7351847
83	0x40691a7e	3.642242
84	0x4074b5ae	3.8235888
85	0x405d149f	3.4543836
86	0x405bd931	3.4351313
87	0x406f6919	3.7407897
88	0x406b61b4	3.6778383
89	0x40720cd9	3.7820342
90	0x4074bcc9	3.8240225
91	0x406cf8a7	3.7026765
92	0x406c4928	3.691965
93	0x4068cabb	3.6373737
94	0x4071b53a	3.7766862
95	0x406e1e05	3.7205822
96	0x4073cb05	3.8092663
97	0x40767ca3	3.8513572
98	0x4079545e	3.8957744
99	0x406757ac	3.614726
100	0x406d333e	3.7062526
101	0x40732094	3.7988634
102	0x406efe32	3.7342649
103	0x406b0553	3.6722
104	0x40692c86	3.6433425
105	0x40656421	3.5842364
106	0x407127ee	3.768062
107	0x4074d716	3.8256278
108	0x406d93aa	3.7121377
109	0x406db870	3.7143822
110	0x40706286	3.7560134
111	0x40616555	3.5218098
112	0x40698651	3.648823
113	0x4065ee86	3.5926833
114	0x406d150f	3.7044103
115	0x4074b1ae	3.8233447
116	0x406e97a9	3.7280066
117	0x407cb0e8	3.9482975
118	0x407124d1	3.767872
119	0x407a1fa5	3.9081814
120	0x406ce300	3.701355
121	0x406a83d6	3.6642966
122	0x407043f2	3.754147
123	0x40736376	3.8029456
124	0x406fbd9e	3.7459483
125	0x407059f2	3.7554898
126	0x406a418b	3.6602504
127	0x407333c8	3.8000355

l3.weight f4 [81, 128]
0	0x402a1e93	2.658116
1	0x402f53e6	2.7394958
2	0x40354945	2.832597
3	0x4036caee	2.8561358
4	0x403c7d25	2.9451382
5	0x4032998a	2.7906213
6	0x403a52d4	2.9113054
7	0x4038dffe	2.8886714
8	0x402ac7bd	2.668441
9	0x4034cb2a	2.8249002
10	0x4032784a	2.7885919
11	0x40356851	2.834492
12	0x40341d87	2.8143022
13	0x40345c19	2.8181212
14	0x4032c967	2.7935426
15	0x40315e3a	2.7713761
16	0x40397201	2.8975832
17	0x402fdfd9	2.7480376
18	0x402f6443	2.7404945
19	0x4031459d	2.7698739
20	0x402e57e8	2.7241154
21	0x402dcb71	2.715542
22	0x403178fa	2.7730088
23	0x403345f9	2.8011458
24	0x402cf8c5	2.7026837
25	0x40402244	3.0020914
26	0x40337fac	2.8046675
27	0x40325e5b	2.787009
28	0x4040fe7c	3.0155325
29	0x40396695	2.896886
30	0x4027f8bb	2.6245563
31	0x40308b75	2.7585118
32	0x402e6990	2.725193
33	0x40310510	2.765934
34	0x402f6777	2.74069
35	0x402c35bf	2.6907804
36	0x403407e5	2.8129818
37	0x40325a00	2.7867432
38	0x4030aba2	2.7604756
39	0x4042b950	3.0425606
40	0x40334c18	2.8015194
41	0x403c9f13	2.9472091
42	0x4031b09f	2.776405
43	0x4034cac0	2.8248749
44	0x403638db	2.8472202
45	0x402f4ecf	2.739185
46	0x403b88a8	2.9302158
47	0x4037765f	2.8665998
48	0x403812b4	2.8761415
49	0x402e5eb3	2.72453
50	0x403647fe	2.848144
51	0x40355e01	2.8338625
52	0x403a748e	2.913364
53	0x40375299	2.8644164
54	0x4038f318	2.8898373
55	0x403a5fce	2.9120975
56	0x40332734	2.7992678
57	0x403280ee	2.7891192
58	0x4029fdaf	2.6561086
59	0x402f7c53	2.7419631
60	0x402f80a7	2.7422273
61	0x4032d938	2.794508
62	0x4033ca66	2.8092284
63	0x4037648f	2.8655126
64	0x40399dfe	2.900268
65	0x4037ac4e	2.8698916
66	0x40326a0f	2.7877233
67	0x403102a9	2.7657874
68	0x403892e9	2.8839667
69	0x4031456e	2.7698627
70	0x4031ee39	2.780165
71	0x40385485	2.8801587
72	0x40352b72	2.8307767
73	0x402f0506	2.7346816
74	0x40320f27	2.7821748
75	0x403be1a5	2.9356472
76	0x4031adb0	2.776226
77	0x4032097f	2.7818296
78	0x4038f7a6	2.8901153
79	0x4034ba46	2.8238692
80	0x403062ad	2.7560227
81	0x403436da	2.8158479
82	0x403347d2	2.8012586
83	0x403742e1	2.863457
84	0x4033681a	2.8032289
85	0x4031ab0d	2.776065
86	0x4025b85b	2.5893772
87	0x4034605f	2.818382
88	0x4038dc20	2.8884354
89	0x4031b38e	2.7765841
90	0x40321c1f	2.7829664
91	0x4034ca9f	2.824867
92	0x40310498	2.7659054
93	0x402e028e	2.718906
94	0x4038c3c6	2.886949
95	0x4032f4f7	2.7962015
96	0x402faedc	2.7450476
97	0x40345eca	2.8182855
98	0x4032a2cf	2.791187
99	0x40366ed2	2.850514
100	0x4038ba94	2.8863878
101	0x4032dfeb	2.7949169
102	0x4032f44e	2.7961612
103	0x4036a9bf	2.8541105
104	0x40358eea	2.8368478
105	0x402d5504	2.708314
106	0x40317a6a	2.7730966
107	0x403085dc	2.7581701
108	0x4036e44d	2.8576844
109	0x40324047	2.7851732
110	0x403cc3b6	2.9494452
111	0x402caab5	2.6979191
112	0x40326796	2.7875724
113	0x40343998	2.8160152
114	0x403f0b48	2.9850636
115	0x4032b0ae	2.7920337
116	0x40390e37	2.8914926
117	0x403a3698	2.9095821
118	0x4033663f	2.8031156
119	0x40371392	2.8605695
120	0x40371817	2.8608453
121	0x4034bdf1	2.824093
122	0x402f7513	2.7415206
123	0x403ec5d6	2.980825
124	0x403343c3	2.8010108
125	0x403187e2	2.7739186
126	0x4039d210	2.9034462
127	0x40385670	2.8802757
128	0x403a5ff1	2.9121058
129	0x4037811d	2.8672554
130	0x403ba01f	2.931648
131	0x4038f6e3	2.8900688
132	0x4031d4b1	2.7786067
133	0x403689fc	2.852172
134	0x403dbe0e	2.964725
135	0x4035dc8f	2.8415868
136	0x40389845	2.8842938
137	0x40355132	2.8330808
138	0x403cccc4	2.949998
139	0x4035bbdd	2.8395913
140	0x403b0e0b	2.922732
141	0x403a2b64	2.9088984
142	0x403522d2	2.8302503
143	0x4034a296	2.8224235
144	0x403cdaa9	2.950846
145	0x403939b6	2.8941474
146	0x4038c095	2.8867543
147	0x40377e3d	2.86708
148	0x403e4e8f	2.9735448
149	0x403464e9	2.818659
150	0x403973d7	2.8976953
151	0x403a93ea	2.915278
152	0x40399c2d	2.9001572
153	0x4039a586	2.9007277
154	0x403b7891	2.9292338
155	0x4039f71f	2.905708
156	0x403525d7	2.8304346
157	0x403d336d	2.9562638
158	0x40366589	2.8499472
159	0x40375f95	2.8652089
160	0x40324601	2.7855227
161	0x40371b41	2.8610384
162	0x403604be	2.8440394
163	0x403a0010	2.9062538
164	0x4034b8db	2.8237827
165	0x40342d80	2.815277
166	0x40341613	2.8138473
167	0x403f2454	2.9865923
168	0x4038992d	2.884349
169	0x403dae28	2.9637547
170	0x4035a62d	2.8382676
171	0x40368c0a	2.8522973
172	0x403a0239	2.9063857
173	0x4033c562	2.8089223
174	0x4031352a	2.7688699
175	0x403a4f3d	2.9110863
176	0x403b5a97	2.9274042
177	0x403911a7	2.8917024
178	0x403cf3f4	2.9523897
179	0x403ae8ba	2.9204545
180	0x40393e2d	2.89442
181	0x403b13ed	2.9230912
182	0x403eb144	2.9795694
183	0x403bcacf	2.9342535
184	0x403bfe54	2.937398
185	0x403a04dd	2.9065468
186	0x403b809b	2.9297245
187	0x40380f79	2.8759444
188	0x40310caf	2.7663991
189	0x403a1e80	2.9081116
190	0x4036888a	2.8520837
191	0x403b55a6	2.9271026
192	0x4037f0d9	2.8740752
193	0x403c4eac	2.9423018
194	0x40316cd7	2.772268
195	0x4035c5b7	2.8401926
196	0x4039f466	2.905542
197	0x4037195b	2.8609226
198	0x40353d2e	2.831859
199	0x4033bf90	2.808567
200	0x4037b1a7	2.870218
201	0x4037a725	2.8695767
202	0x403b8fcd	2.930652
203	0x402fe683	2.7484443
204	0x40354d72	2.832852
205	0x4038eb09	2.8893454
206	0x403422b7	2.8146188
207	0x4030db7f	2.763397
208	0x4034c676	2.824613
209	0x40399c93	2.9001815
210	0x403b8dfc	2.930541
211	0x403143a2	2.769753
212	0x403724e2	2.8616261
213	0x40337dcf	2.8045537
214	0x403c5584	2.9427195
215	0x403728c1	2.8618624
216	0x40348936	2.8208747
217	0x40357cf4	2.8357515
218	0x4034f8e1	2.8276904
219	0x4036aff5	2.8544896
220	0x4032c88f	2.7934911
221	0x40359c16	2.8376517
222	0x403887c4	2.8832865
223	0x4031a3c8	2.7756214
224	0x40358dd3	2.8367813
225	0x40356019	2.8339903
226	0x40364293	2.8478134
227	0x4035ef0c	2.8427153
228	0x40340f94	2.8134508
229	0x403ca5a2	2.9476094
230	0x403c479f	2.9418714
231	0x4039e976	2.9048743
232	0x4035c463	2.8401115
233	0x4037a30c	2.8693266
234	0x403a328f	2.9093359
235	0x40372df1	2.862179
236	0x40355be9	2.8337348
237	0x4031d419	2.7785704
238	0x40383a6f	2.8785665
239	0x40298163	2.6485221
240	0x4033886e	2.805202
241	0x4037d3ac	2.8722944
242	0x403249ba	2.78575
243	0x403d6025	2.9589932
244	0x4033cd66	2.8094115
245	0x403a18bd	2.90776
246	0x40359e95	2.837804
247	0x4031dd37	2.779127
248	0x4034a64b	2.8226497
249	0x40334da8	2.8016148
250	0x40351f4e	2.8300357
251	0x403516c4	2.8295145
252	0x40392a66	2.8932128
253	0x403320da	2.79888
254	0x4039d815	2.9038136
255	0x403b898c	2.9302702

l3.bias f4 [81]
0	0x400e2d3b	2.2215106
1	0x40160074	2.3437777
2	0x3fb5a9ac	1.4192405
3	0x3fb29754	1.3952432
4	0x40051bb2	2.0798154
5	0x3f59c3e1	0.8506451
6	0x402dd711	2.7162516
7	0x40213323	2.5187461
8	0x400e8339	2.2267592
9	0x3f8a1d35	1.0790163
10	0x3f748cc4	0.9552729
11	0x4021b417	2.5266168
12	0x4016215e	2.3457866
13	0x4016f6ab	2.3588054
14	0x3f8f4ca0	1.1195259
15	0x3fdc53d7	1.7213086
16	0x400ff81a	2.249518
17	0x3fc5641b	1.5421175
18	0x4017ea27	2.3736665
19	0x400a3fb7	2.1601388
20	0x400aeec5	2.1708233
21	0x4002b812	2.0424848
22	0x3fc6f377	1.554305
23	0x400f45d8	2.238638
24	0x40274d97	2.6141107
25	0x401ac3b0	2.4181938
26	0x3fd98fa0	1.6996956
27	0x400d3ffb	2.20703
28	0x3faf803e	1.3711011
29	0x4019be00	2.4022217
30	0x3feb70c4	1.8393788
31	0x401610db	2.3447788
32	0x4025cd61	2.5906603
33	0x400c2c64	2.1902094
34	0x3fe74bee	1.8070047
35	0x40074a47	2.1139085
36	0x4025ab3a	2.5885758
37	0x401f644b	2.4904964
38	0x401f25b3	2.486676
39	0x401decf7	2.4675882
40	0x400df78b	2.2182338
41	0x400b8d0a	2.1804833
42	0x40260073	2.5937774
43	0x4010f599	2.26499
44	0x401f204d	2.4863465
45	0x4014ef6e	2.3271136
46	0x40177f9f	2.3671644
47	0x400c69bd	2.1939538
48	0x40065adb	2.0992954
49	0x40217b92	2.5231671
50	0x400b0b6b	2.172572
51	0x3f87b712	1.0602744
52	0x3f64530e	0.8918923
53	0x3f80dd64	1.0067563
54	0x401f733f	2.491409
55	0x400cca65	2.1998532
56	0x400bf207	2.1866472
57	0x400c9f51	2.197224
58	0x40052b40	2.0807648
59	0x3ffa0c42	1.9534991
60	0x401b4e9b	2.4266727
61	0x3fb3a697	1.4035214
62	0x402f9cf6	2.7439551
63	0x402633a3	2.5969017
64	0x3f178bd5	0.5919774
65	0x40166a35	2.3502324
66	0x40167578	2.3509197
67	0x401d445a	2.4572968
68	0x400c5b36	2.193067
69	0x40160304	2.343934
70	0x40097ecf	2.1483648
71	0x3f27aba4	0.6549628
72	0x3fe06b51	1.753275
73	0x4021b706	2.5267959
74	0x40098048	2.1484547
75	0x3fdba3c0	1.7159348
76	0x400d1bb1	2.2048151
77	0x400d61f9	2.2091048
78	0x40064b1c	2.0983343
79	0x400f6671	2.2406275
80	0x40453e98	3.0819454
