dqn.pth (torch, 63328 bytes, 6 tensors)

conv1.weight f4 [16, 1, 3, 3]
000000 40 37 2f 40 0e d9 32 c0 cd fb 25 c0 ea b1 31 40
       2.7377472 -2.794498 -2.5934937 2.776484
000010 e4 1a 25 c0 a4 ca 29 c0 65 0e 1c 40 76 52 0e 40
       -2.5797663 -2.6529932 2.4383786 2.223783
000020 be 70 1f c0 db d1 27 40 40 f5 26 c0 5b 19 32 40
       -2.4912562 2.6221836 -2.6087189 2.7827976
000030 68 ef b1 3f ac 7d 20 40 54 2e 39 40 da 83 37 40
       1.3901186 2.5076704 2.8934526 2.8674226
000040 b9 d1 36 c0 c3 35 3e c0 c1 03 05 40 90 c5 1b c0
       -2.8565505 -2.9720314 2.0783541 -2.4339333
000050 50 0d 1d 40 3f e5 29 40 df d8 42 c0 d9 3d 39 c0
       2.4539375 2.654617 -3.0444868 -2.8944
000060 fe f1 0f 40 34 a3 21 c0 e9 7b 2e c0 7a e1 20 40
       2.249145 -2.5255861 -2.7263129 2.513762
000070 63 31 1a c0 b2 3b 14 40 f4 99 2c 40 cf 32 09 40
       -2.4092643 2.3161435 2.6968966 2.143726
000080 f5 e5 1b 40 5f db 22 40 a2 85 22 c0 b6 8b 29 c0
       2.4359105 2.5446393 -2.5394063 -2.6491523
000090 0c 16 29 c0 2f 76 22 c0 75 68 0d 40 5b 9a 2b 40
       -2.6419706 -2.5384634 2.2095006 2.681296
0000a0 74 eb 20 40 59 2c 2a c0 29 b3 30 c0 27 52 dd 3f
       2.514371 -2.6589568 -2.760935 1.7290696
0000b0 ab 9d 28 c0 e8 31 39 40 42 7a 07 40 eb 3a 30 c0
       -2.6346233 2.893671 2.116837 -2.753596
0000c0 f0 86 31 40 37 3c 30 c0 e2 84 2d c0 f7 46 2a 40
       2.773861 -2.7536752 -2.7112355 2.6605814
0000d0 65 70 22 40 24 e6 21 c0 b0 0d 32 40 c5 72 15 40
       2.53811 -2.5296717 2.7820854 2.33513
0000e0 b2 15 2d c0 ee 3d 42 40 e7 ed 19 c0 8f 21 3a 40
       -2.7044492 3.03503 -2.4051454 2.9082983
0000f0 08 b4 35 40 1d 99 00 40 67 59 2f c0 c3 16 13 c0
       2.8391132 2.0093453 -2.7398317 -2.2982643
000100 50 19 3d 40 02 51 28 c0 2b 26 1f 40 7c 5d 3b 40
       2.95467 -2.6299443 2.4867046 2.9275808
000110 79 e2 23 40 a0 3b 16 c0 b1 9f 34 40 0c e8 11 40
       2.5606978 -2.3473892 2.8222468 2.279788
000120 89 ca 24 40 7d 32 2a c0 d9 07 38 c0 30 75 2b 40
       2.5748618 -2.6593316 -2.875479 2.6790276
000130 b3 cf 26 c0 c2 0f 0d 40 8e 8a 29 40 a5 c3 04 40
       -2.606427 2.2040868 2.6490817 2.0744412
000140 5f 58 1f 40 78 58 f3 3f a2 c2 3c c0 37 ff 28 c0
       2.4897687 1.9011374 -2.9493794 -2.640577
000150 15 e5 29 40 6d 6b 35 c0 5e 2a 3c c0 b9 b0 19 c0
       2.654607 -2.8346817 -2.940086 -2.4014113
000160 08 01 0e 40 87 b2 2d c0 e4 a7 29 40 19 ab 2e 40
       2.218813 -2.7140214 2.6508722 2.729193
000170 e4 02 2a c0 1a 20 32 40 49 45 35 40 67 d8 0b 40
       -2.6564264 2.7832093 2.8323538 2.1850832
000180 84 61 3d c0 e2 f3 32 c0 03 a8 1a c0 e4 11 0e c0
       -2.959077 -2.7961354 -2.4165046 -2.219842
000190 13 43 2b c0 e7 fd 43 40 b2 07 27 c0 e7 f6 05 40
       -2.675969 3.062372 -2.6098447 2.0931947
0001a0 58 ed 47 40 18 81 31 c0 0a 89 3a c0 9c aa 20 40
       3.1238613 -2.7735043 -2.9146142 2.5104132
0001b0 5a c7 39 40 e8 46 2a 40 37 23 b1 3f 8b d5 28 40
       2.9027925 2.6605778 1.3838872 2.6380336
0001c0 19 0c 2d c0 ac 5f 32 c0 1a 3b 3e 40 19 d6 fb 3f
       -2.7038634 -2.7870893 2.9723573 1.9674712
0001d0 0a 0e f9 bf 2b 88 1b 40 c0 0e 30 40 25 15 32 40
       -1.9457409 2.430186 2.7509003 2.7825406
0001e0 60 65 2d c0 4b 9e 20 40 6c e3 0f 40 1e 97 24 c0
       -2.7093124 2.5096614 2.2482557 -2.5717235
0001f0 4d 97 25 c0 97 d9 28 40 ff f6 2d c0 10 18 2d 40
       -2.5873597 2.6382806 -2.7182004 2.7045937
000200 66 76 2d 40 4e 55 34 c0 36 04 37 c0 37 26 49 40
       2.7103515 -2.8177066 -2.859632 3.1429574
000210 a0 8e 30 c0 53 c9 0e c0 39 69 4d 40 92 09 15 40
       -2.7587051 -2.2310379 3.2095473 2.3287091
000220 5c 3a ea 3f a8 3c 3c 40 f1 56 3d c0 ba 4a 24 c0
       1.829906 2.9412022 -2.9584315 -2.567061
000230 13 58 00 c0 23 12 35 c0 b9 09 3c 40 18 ee 27 c0
       -2.0053756 -2.829232 2.9380934 -2.623907

conv1.bias f4 [16]
000000 a3 f1 3f 40 c0 e9 3a 40 83 04 16 40 5b 7c 3f 40
       2.9991233 2.920517 2.3440254 2.991965
000010 d4 f7 39 40 bc 65 43 40 e2 fc 10 40 45 7f 1e 40
       2.9057512 3.0530844 2.2654347 2.476518
000020 79 33 31 40 a6 03 0d 40 28 40 22 40 6b d4 18 40
       2.7687666 2.2033477 2.5351658 2.387965
000030 51 cb 17 40 0a b6 3f 40 75 53 14 40 60 b0 49 40
       2.3717844 2.9954858 2.3175938 3.15139

conv2.weight f4 [32, 16, 3, 3]
000000 bb 7e 87 3e a2 d5 9c 3d 30 17 03 be e7 32 77 3d
       0.26463875 0.07657935 -0.12801814 0.06035128
000010 6e dc 2b be fb 5c ef bd e0 e1 7d 3e ed 38 97 3d
       -0.16783306 -0.116876565 0.24793196 0.073839046
000020 cb 75 fd 3b b4 3b e4 3d 50 4a be bd de 82 3f be
       0.0077349893 0.111442 -0.09291518 -0.18702266
000030 34 b2 8f bd 83 7a 61 bd 3c 28 72 be bb c4 03 bd
       -0.070164114 -0.055048477 -0.2364816 -0.03217004
000040 69 0b 7a bd f0 ae 36 be 4f 9a ea 3a 8c e5 96 be
       -0.061046038 -0.17840171 0.0017898771 -0.29472005
000050 38 7e 83 bc 25 1f 9a bd ca d6 4a be d0 d5 63 bd
       -0.016051397 -0.075254716 -0.19808498 -0.05562383
000060 86 d2 5c bd 02 2a 40 bd 67 e6 f4 bd 70 3d 8b 3e
       -0.05391171 -0.04691506 -0.11958008 0.2719531
000070 8d 73 e1 3c fb 1b 25 bd 97 8c ee 3d 87 f2 e4 bc
       0.02752092 -0.040309887 0.11647909 -0.027947677
000080 5a 29 11 be 0c 20 35 3e 44 79 2c 3d a6 cd bc bd
       -0.1417593 0.17688006 0.042107835 -0.09218912
000090 94 fd d4 3d e2 c5 8c 3d 46 7a d9 bd 7a f1 d4 3d
       0.10399929 0.06873681 -0.10619025 0.103976205
0000a0 2e 42 de bd ac 55 fa bd 46 be 2f 3c b2 89 ed bc
       -0.108524665 -0.12223372 0.010726517 -0.028996322
0000b0 86 18 14 be f7 de 87 3e 11 8b e1 bc 73 6d 65 be
       -0.1446248 0.26537296 -0.027532132 -0.22405033
0000c0 ea a3 24 3d 50 60 55 be ba 57 64 be 6a 1b 44 3e
       0.040195383 -0.20837522 -0.2229909 0.19151083
0000d0 ec b7 d6 bd 9e 70 25 be 14 b0 8c 3d 49 be ea be
       -0.10484299 -0.16156241 0.06869522 -0.458483
0000e0 16 92 b8 be 4f 87 e4 3d e6 e6 a3 be de 09 94 be
       -0.36048955 0.111586206 -0.320121 -0.28913778
0000f0 94 82 20 3e 17 66 b2 be fc 30 23 bd 09 24 84 be
       0.15674812 -0.34843513 -0.039841637 -0.25808743
000100 f2 f1 db be 24 b7 95 be 40 1b 34 be 4f 89 b8 bd
       -0.42958027 -0.29241288 -0.1758852 -0.090105645
000110 9a 8c bf be 85 17 38 be 3d 32 ae bd 88 8f 8f be
       -0.37411958 -0.17977722 -0.08505676 -0.28039193
000120 8d 97 b1 3d 02 a1 0d bd 27 af ca bc a2 48 3d 3d
       0.08671484 -0.034577377 -0.024741722 0.046211846
000130 fd 7c 48 be 57 ad 5a be df 39 4f 3e 68 f5 ce bd
       -0.19578929 -0.21355186 0.2023692 -0.10105401
000140 8e b5 15 bd 7d c5 2a be 19 86 0d be 51 3f eb bc
       -0.036550097 -0.16676898 -0.13820685 -0.028716715
000150 3f 80 45 be 08 23 24 be 17 16 9d bd a8 1d a9 bd
       -0.19287203 -0.16028988 -0.07670229 -0.082576096
000160 64 79 a6 be 9a 65 20 be 98 6e 05 3d 93 f1 c9 bd
       -0.3251449 -0.15663758 0.032576174 -0.0986053
000170 86 b6 26 be 55 ba 7f bd 43 88 5e bd 1c 55 80 be
       -0.16280565 -0.06243356 -0.054329168 -0.25064933
000180 d3 8b 60 3d 54 14 32 be 2d 7a 6a be e8 d3 87 be
       0.054820847 -0.17390567 -0.22898169 -0.2652886
000190 69 c1 42 bc 12 b1 8b be fb e0 8a be 99 14 09 be
       -0.011886933 -0.2728353 -0.2712477 -0.13386764
0001a0 1d 79 76 be 7b e4 51 be b4 5b c4 bd 44 a6 8a be
       -0.24069639 -0.20497315 -0.095878035 -0.27079976
0001b0 67 fd 6e 3e b7 3b 7c be b8 32 6e be a6 d3 12 3e
       0.23338853 -0.24632154 -0.23261535 0.1433855
0001c0 20 96 9b be 67 1c 80 be cd 60 db 3d a8 73 bb be
       -0.30387974 -0.2502167 0.10711823 -0.36611676
0001d0 f2 34 30 3d 58 9e bd 3d 28 3f 37 bd 65 bd 27 be
       0.043019243 0.09258717 -0.044737965 -0.16380842
0001e0 25 ab a1 bd 9a 35 93 bd 81 67 b5 be 10 83 8e 3d
       -0.07893971 -0.07187958 -0.3543053 0.06958592
0001f0 9e b4 03 3e ef 2c 41 be 7f 53 b5 be 78 59 03 be
       0.12861869 -0.18864797 -0.35415265 -0.12827098
000200 13 47 6b be 83 d6 df be 56 bf cf ba 81 e3 ba be
       -0.22976331 -0.43718347 -0.0015849869 -0.36501697
000210 04 f8 9e be 2b 91 09 3d 5b 41 f0 be 4a 36 9b bd
       -0.31048596 0.03358571 -0.46924862 -0.07578714
000220 93 54 15 3d f0 e2 0d be 61 21 3f be c7 93 9e bd
       0.03645761 -0.13856101 -0.18665077 -0.0774303
000230 4c 74 92 be 67 9a 8c 3d 48 22 09 be 2b 82 7e be
       -0.28604352 0.068653874 -0.13391984 -0.24854343
000240 56 b1 db 3f 1a ca ce 3f 37 56 85 3f 8b c3 de 3f
       1.7163494 1.6155427 1.0416936 1.7403425
000250 aa 68 b5 3f f6 fa 76 3f cb b3 dd 3f 6a 4b d5 3f
       1.4172566 0.96476686 1.7320493 1.666364
000260 8b 77 81 3f bd 53 de 3f 37 f3 ca 3f 1c 67 83 3f
       1.0114607 1.7369305 1.5855473 1.0265841
000270 35 ef cb 3f b5 38 bf 3f 0f 35 4b 3f c0 34 ce 3f
       1.5932375 1.4939181 0.79377836 1.6109848
000280 2f 08 ce 3f 72 45 7e 3f 9b 80 b7 3f 77 2a b4 3f
       1.6096247 0.99324715 1.4336122 1.4075459
000290 b0 d0 7f 3f 6f c7 c7 3f fb c8 ba 3f d8 9d 75 3f
       0.99927807 1.5607737 1.4592584 0.95943975
0002a0 ab a4 b4 3f 88 60 c5 3f 08 71 89 3f 28 a5 e8 3f
       1.4112753 1.5420084 1.0737619 1.8175402
0002b0 2a e4 cd 3f 35 0b 86 3f 5d 92 cf 3f a5 e8 bc 3f
       1.6085255 1.047217 1.6216542 1.4758497
0002c0 e0 3c 49 3f 5d 6c e7 3f 6e 88 cf 3f 39 2b 84 3f
       0.7860851 1.8079945 1.621351 1.032569
0002d0 2d c5 da 3f a6 3a c5 3f 34 ba 88 3f d9 ce cf 3f
       1.7091423 1.5408523 1.0681825 1.6235
0002e0 5c bd b7 3f c3 69 4c 3f 33 1b d2 3f 7b 4d cd 3f
       1.4354663 0.7984888 1.641455 1.603927
0002f0 3f 90 6a 3f 07 3b d6 3f 85 71 c5 3f 19 ac 82 3f
       0.9162635 1.6736764 1.5425268 1.020877
000300 93 36 d0 3f d9 d7 b5 3f d8 fb 62 3f 7b 88 e8 3f
       1.6266655 1.4206496 0.88665533 1.816665
000310 a6 64 d0 3f a0 15 8a 3f 91 33 b9 3f 21 85 bb 3f
       1.6280715 1.078785 1.4468862 1.4650003
000320 35 c1 81 3f e6 df d3 3f 1d d3 c8 3f f0 12 76 3f
       1.0137087 1.6552703 1.5689427 0.96122646
000330 3c 75 cd 3f 3f df bc 3f c1 46 82 3f b4 b9 b8 3f
       1.6051402 1.4755629 1.0177842 1.4431672
000340 24 41 a0 3f 86 e2 1d 3f 41 20 b6 3f f0 65 ab 3f
       1.2519879 0.6167377 1.4228593 1.3390484
000350 b2 bb 39 3f 60 4d b9 3f 79 c0 c1 3f 63 cf 3e 3f
       0.72552025 1.4476738 1.5136863 0.74535197
000360 63 c4 c8 3f 56 19 c5 3f e8 bc 73 3f 1c f7 dc 3f
       1.5684932 1.5398357 0.95210123 1.7262912
000370 e2 d4 cd 3f 49 01 79 3f 40 6f ee 3f bb a0 d7 3f
       1.6080592 0.97267586 1.8627701 1.6845926
000380 00 f8 7f 3f f9 a2 b3 3f af 73 a4 3f 29 ad 84 3f
       0.9998779 1.403411 1.2847804 1.0365344
000390 da d1 cf 3f 98 fe b7 3f 5f 2b 82 3f 15 ea bd 3f
       1.6235917 1.4374571 1.0169486 1.4837061
0003a0 e9 da b8 3f 1a f1 7b 3f 02 b0 bc 3f a2 4d cc 3f
       1.4441806 0.98414767 1.4741213 1.5961192
0003b0 c8 f4 90 3f 2f 56 d1 3f 22 9f b7 3f 64 35 59 3f
       1.1324701 1.6354426 1.4345438 0.8484709
0003c0 74 b1 c6 3f e0 71 ac 3f 06 a7 64 3f f0 aa ab 3f
       1.5522904 1.3472252 0.8931736 1.3411541
0003d0 e7 03 d6 3f 4f 01 54 3f e3 04 ad 3f ec 8a bf 3f
       1.6719941 0.82814497 1.3517116 1.496427
0003e0 24 5d 4a 3f ab 09 ac 3f 91 b5 b4 3f 00 e1 62 3f
       0.7904837 1.344045 1.411791 0.8862457
0003f0 e2 0a d7 3f 82 3e af 3f 95 18 95 3f 27 07 df 3f
       1.6800196 1.3690951 1.1648127 1.7424058

conv2.bias f4 [32]
000000 46 b2 4a bd 87 99 af 3f a4 45 e2 3f b1 d9 bd 3f
       -0.04948642 1.3718728 1.7677503 1.4832059
000010 db 9a 07 40 e4 36 e2 3f 37 d5 f2 3f 3c 00 ff 3f
       2.1188266 1.7673001 1.8971318 1.9921947
000020 d8 fe d7 3f cf 29 d8 3f fc 95 d7 3f d7 ff f0 3f
       1.6874647 1.6887759 1.6842647 1.8828076
000030 c0 17 dc 3f bf 6b ff 3f 01 03 e1 3f 96 95 bc bd
       1.7194748 1.9954756 1.7579042 -0.09208219
000040 f2 47 f7 3f 6d c1 ee 3f 3f d7 a1 3f a5 6c e8 3f
       1.9318831 1.8652779 1.2643813 1.8158156
000050 76 00 f5 3f 06 58 b6 bd c2 48 f4 3f 33 e8 11 40
       1.9140766 -0.08903508 1.9084704 2.2797973
000060 18 fe db 3d 68 f0 9f 3f 1f c7 b5 3f a3 82 24 40
       0.10741824 1.2495241 1.4201392 2.5704734
000070 86 5c e2 3f 83 27 1c 40 aa 02 05 40 15 f6 f0 3f
       1.7684486 2.4399116 2.0782876 1.8825098

fc.weight f4 [81, 128]
000000 f9 4f fc bd 89 1f de bd 63 a6 46 be f5 1e 92 be
       -0.12319941 -0.108458586 -0.19399409 -0.28539243
000010 ea 99 92 3f 2d e4 9c 3f ef de 7a 3f f4 35 91 3f
       1.1453221 1.2257134 0.9799642 1.134459
000020 7a 83 9c 3f c8 64 bc 3f 49 02 9e 3f 6f cd be 3f
       1.2227623 1.4718256 1.2344447 1.4906443
000030 b3 08 9b 3f e1 98 91 3f 27 fa 8b 3f 70 30 9d 3f
       1.211203 1.137478 1.0935715 1.2280407
000040 4f 66 ba 3f 70 1c 85 3f 1e bc bf 3f 0e ea c8 3f
       1.4562472 1.0399303 1.4979284 1.5696428
000050 25 30 9a 3f 20 26 9c 3f 11 7e a2 3f 6c 0c c1 3f
       1.2045943 1.2199135 1.2694722 1.5081916
000060 05 7f b7 3f f4 eb 9b 3f 30 2e cb 3f 65 82 a3 3f
       1.4335638 1.2181382 1.587347 1.2774168
000070 61 b8 af 3f 07 86 b0 3f 39 7e b0 3f 81 7f c8 3f
       1.3728143 1.3790902 1.378852 1.5663911
000080 80 fb 9b 3f 73 7a a6 3f ca a3 b4 3f 3b f7 b8 3f
       1.2186127 1.3006119 1.4112484 1.4450449
000090 e8 fb 9e 3f 6c 90 b4 3f 4f 2a a5 3f 1b e3 c0 3f
       1.2420626 1.4106574 1.2903537 1.5069307
0000a0 d5 f0 84 3f 9d 6b 9f 3f 09 60 89 3f c2 d5 c4 3f
       1.0385996 1.2454716 1.0732433 1.5377734
0000b0 24 62 a6 3f 00 c6 9e 3f b2 4b ad 3f ae a8 c5 3f
       1.29987 1.2404175 1.3538725 1.5442102
0000c0 75 91 94 3f 2b df bd 3f 8b f6 8b 3f a3 16 be 3f
       1.160689 1.483373 1.0934614 1.4850658
0000d0 0c a7 be 3f 9e 8a a0 3f 72 22 c3 3f 74 4e 9e 3f
       1.4894729 1.2542303 1.5244887 1.2367692
0000e0 8f 0b 89 3f 5c 1d a4 3f aa 0a 92 3f 6b 7f ba 3f
       1.0706652 1.282146 1.1409504 1.4570135
0000f0 ef 51 5c be 1c c0 f2 bd f5 c0 8b be a9 59 d6 bd
       -0.2151563 -0.11853048 -0.27295652 -0.1046632
000100 60 2c 9d 3f 17 09 c2 3f 2f c5 a6 3f e1 c5 ab 3f
       1.2279167 1.5159024 1.3028926 1.3419763
000110 1c d3 b7 3f ea ee 98 3f d7 f2 c4 3f 59 22 9e 3f
       1.43613 1.1947911 1.5386609 1.2354232
000120 90 b7 57 3f 66 00 5a 3f 9c f2 79 3f 4e b2 61 3f
       0.8426447 0.8515686 0.9763582 0.88162696
000130 47 e4 c3 3f 90 47 9f 3f c3 be be 3f 2d 93 8e 3f
       1.530404 1.2443714 1.4901966 1.1138664
000140 12 bd c5 3f f4 93 9b 3f f9 01 bf 3f c3 e5 8b 3f
       1.5448325 1.2154527 1.4922477 1.0929493
000150 79 f5 e1 bd 47 95 14 be bc 75 c1 bd 97 2b 2d be
       -0.11033148 -0.1451007 -0.09446284 -0.1691116
000160 a2 ee ba 3f 85 8e b1 3f cb 55 b5 3f 40 5e 9e 3f
       1.4604075 1.3871619 1.4166807 1.2372513
000170 fe 75 ae 3f f3 46 d5 3f 6f dc bb 3f 48 ea e3 3f
       1.3629758 1.6662277 1.4676646 1.7805872
000180 4c 3e 00 be f6 d1 fb ba 29 bf 10 be e9 39 21 be
       -0.12523764 -0.0019212354 -0.14135422 -0.15744747
000190 e1 d8 5e 3f 48 a9 70 3f 06 3f 7a 3f 7a 1b 82 3f
       0.8704968 0.940083 0.97752416 1.0164635
0001a0 e8 61 8c 3f 89 74 94 3f 79 97 8d 3f a1 4a a7 3f
       1.0967379 1.1598064 1.1061851 1.306965
0001b0 8c 9d be 3f ea b0 b1 3f 1d 00 b6 3f de c8 e8 3f
       1.489183 1.3882115 1.4218785 1.81863
0001c0 3f 4e a3 3f a4 c1 a1 3f 93 eb ab 3f ac 72 9d 3f
       1.2758254 1.263722 1.3431267 1.230062
0001d0 14 e6 d5 3f 51 f7 c2 3f ff 2d e4 3f e2 56 b6 3f
       1.6710839 1.5231725 1.7826537 1.4245265
0001e0 ff 9d ba 3f ca eb a2 3f 72 77 bd 3f 9f 02 c0 3f
       1.4579467 1.2728207 1.4802077 1.50008
0001f0 23 94 b2 3f f2 fb a0 3f 9c 42 b8 3f 66 2a 96 3f
       1.3951458 1.2576888 1.4395328 1.1731689
000200 b8 6c 57 be c0 86 3b be ec d5 f7 bd d1 01 43 be
       -0.21037567 -0.18313122 -0.12101349 -0.19043662
000210 5a 98 7c 3f af e6 9f 3f 00 ea 6e 3f f9 90 8d 3f
       0.9866997 1.2492274 0.93325806 1.1059867
000220 70 92 97 3f 9c fe bd 3f 59 80 94 3f 6d a8 b8 3f
       1.1841564 1.4843326 1.1601669 1.44264
000230 81 2e 93 3f 17 3b af 3f b7 8e 9a 3f 24 c4 aa 3f
       1.1498567 1.3689908 1.2074803 1.3341107
000240 1c 2d bd 3f 89 71 8f 3f 53 97 b0 3f 99 82 c9 3f
       1.4779391 1.1206523 1.379618 1.574298
000250 23 5a 9d 3f 3d e0 9a 3f 19 8e ad 3f 5a 34 bc 3f
       1.2293133 1.2099682 1.355899 1.4703476
000260 73 b3 a9 3f a8 57 9b 3f 6e f9 c3 3f fb 39 b1 3f
       1.3257889 1.2136126 1.5310495 1.3845819
000270 a4 ba 9f 3f f7 1d a0 3f 84 a2 ba 3f 25 37 be 3f
       1.2478833 1.2509145 1.4580846 1.4860579
000280 20 e0 98 3f 78 fe 9a 3f e4 c4 ab 3f 72 fc bc 3f
       1.1943398 1.2108908 1.3419461 1.476454
000290 a1 b4 94 3f f1 8e af 3f a3 a2 9c 3f d1 bc b8 3f
       1.1617624 1.3715497 1.2237133 1.4432622
0002a0 ca 36 84 3f fe f5 a0 3f 84 aa 86 3f e8 81 b0 3f
       1.032922 1.2575071 1.0520787 1.3789644
0002b0 f8 67 98 3f ff 96 8e 3f 7f ee a1 3f 32 9e be 3f
       1.1906729 1.113983 1.2650908 1.4892027
0002c0 25 5f 8d 3f c5 58 bd 3f dd 49 93 3f 6d a2 ad 3f
       1.1044661 1.4792715 1.1506916 1.3565193
0002d0 1a 76 be 3f 85 91 9b 3f f4 23 c1 3f c7 04 97 3f
       1.4879792 1.2153784 1.5089097 1.1798333
0002e0 52 7e 93 3f 9a f2 8b 3f e7 b8 96 3f d2 6f ae 3f
       1.1522925 1.0933411 1.1775178 1.3627875
0002f0 1d b2 af bc 5e 13 c8 bd 2a 9e 1a be 7d f2 1c be
       -0.021447236 -0.09769319 -0.15099397 -0.15326877
000300 c0 d6 9b 3f 3d 8c cc 3f 91 56 aa 3f e1 19 a0 3f
       1.2174911 1.5980297 1.3307668 1.2507898
000310 0a 6e a7 3f 11 6f 9e 3f 3b 32 d1 3f ce 18 ae 3f
       1.3080456 1.2377645 1.6343454 1.360132
000320 17 b8 6c 3f cc a4 67 3f 5f b0 6d 3f c8 d0 80 3f
       0.924684 0.90485835 0.92847246 1.0063715
000330 1a 8e bb 3f f5 e8 97 3f 3a 66 b1 3f c8 68 89 3f
       1.4652741 1.1867968 1.3859322 1.0735102
000340 30 cb ca 3f 95 b7 a1 3f 9b c3 c2 3f 34 a4 9a 3f
       1.5843258 1.263415 1.5215944 1.2081361
000350 b3 77 af bd d0 b8 ed bd 04 95 01 bd 4a 62 a2 bd
       -0.08567753 -0.11607516 -0.031636253 -0.079289034
000360 d1 4b bb 3f 93 18 b1 3f 7f a8 b7 3f 80 75 94 3f
       1.4632512 1.3835624 1.4348296 1.1598358
000370 d2 19 b0 3f 75 55 c6 3f a7 74 b7 3f bd 6a e6 3f
       1.375788 1.549483 1.4332474 1.8001324
000380 ce b8 42 be 71 48 0e bd 19 67 7a bd 06 ad b9 bd
       -0.1901581 -0.034737054 -0.061133478 -0.09066205
000390 46 48 63 3f 9a 4f 65 3f fe dc 81 3f c6 c8 83 3f
       0.88782156 0.8957459 1.0145566 1.0295646
0003a0 1d eb 89 3f 0c 99 9f 3f cb eb 9b 3f 2b 77 96 3f
       1.0774876 1.2468581 1.2181333 1.1755117
0003b0 2a a0 a4 3f 30 e4 9d 3f 91 ee af 3f 01 ee eb 3f
       1.2861378 1.2335262 1.374468 1.8432008
0003c0 66 6a a1 3f 82 d8 93 3f 7e 4e b8 3f c8 07 a5 3f
       1.2610595 1.1550448 1.4398954 1.2893
0003d0 d4 a9 d5 3f 4c be c0 3f df 3b e0 3f 29 a6 ad 3f
       1.6692452 1.5058074 1.7518271 1.3566333
0003e0 f6 33 a2 3f a0 24 8d 3f 2d 7a d1 3f 78 82 b4 3f
       1.2672107 1.1026802 1.636541 1.4102316
0003f0 53 75 ac 3f e7 71 97 3f ae d9 c3 3f 69 11 9f 3f
       1.3473305 1.1831635 1.5300806 1.2427188

fc.bias f4 [81]
000000 e8 80 a1 3f c9 19 a5 3f ad 6b 9c 3f c5 ea 8b 3f
       1.2617464 1.2898494 1.222036 1.0931021
000010 db 8a ad 3f 69 f7 a0 3f 87 a0 97 3f d3 9a b1 3f
       1.3558 1.2575504 1.1845864 1.3875374
000020 60 94 9c 3f 83 2d 9f 3f 29 f5 99 3f a4 f8 ad 3f
       1.223278 1.2435764 1.2027942 1.3591504
000030 61 87 a7 3f 8b 6f 51 3f ea ed ab 3f 3c 40 9c 3f
       1.3088189 0.81810826 1.3431981 1.2207103
000040 f7 a9 af 3f a3 c6 9b 3f 0c 81 6b 3f ad 8f ba 3f
       1.3723744 1.2169994 0.91993785 1.4575096
000050 8a 92 b8 3f 98 9a a8 3f ee b7 be 3f 9a 15 a2 3f
       1.441972 1.3172178 1.4899881 1.2662842
000060 a2 01 94 3f 56 ed b0 3f 16 3e 8c 3f ed 13 b2 3f
       1.1562998 1.3822429 1.0956447 1.3912331
000070 98 28 ae 3f c6 c5 ae 3f ad 19 a9 3f 4e 07 a7 3f
       1.3606138 1.3654106 1.3210961 1.3049104
000080 6f ff a6 3f 61 8b a9 3f ec 4d b5 3f bb b6 80 3f
       1.3046702 1.324566 1.4164405 1.0055765
000090 03 d2 ae 3f d2 a0 9e 3f 75 25 ba 3f 1d 17 9f 3f
       1.365784 1.2392828 1.4542681 1.2428929
0000a0 5d 23 81 3f fa 91 a8 3f be 95 bc 3f 85 8b 75 3f
       1.0088917 1.3169549 1.4733198 0.95916015
0000b0 8c af a2 3f 29 57 a5 3f d3 13 99 3f 9c 2c a7 3f
       1.2709823 1.2917224 1.1959175 1.3060489
0000c0 2c 6b b2 3f f1 e0 ab 3f 3e e1 9f 3f 2f 9f a7 3f
       1.3938956 1.3428022 1.2490613 1.3095454
0000d0 83 7a ac 3f c5 28 97 3f 96 42 aa 3f 67 49 a4 3f
       1.3474888 1.1809317 1.330157 1.2834901
0000e0 87 76 a5 3f 87 bb 96 3f b5 84 a9 3f 42 dc b4 3f
       1.2926797 1.1775979 1.3243624 1.4129717
0000f0 c2 b6 a5 3f 05 26 9e 3f 28 07 4c 3f 6c ae a0 3f
       1.2946398 1.2355353 0.7969842 1.2553229
000100 5d c0 87 3f 3f bf 54 3f 90 b5 59 3f 94 11 04 3f
       1.060558 0.8310432 0.8504267 0.5158932
000110 c0 81 ac 3f 6b d9 1a 3f 47 84 67 3f 46 67 ac 3f
       1.3477097 0.60488003 0.90436214 1.3469017
000120 26 e7 8b 3f 42 01 92 3f 92 08 26 3f bb bc 52 3f
       1.0929916 1.1406634 0.6485683 0.8231923
000130 a7 a3 4c 3f f4 e0 8a 3f 5e 24 74 3f b3 ad 56 3f
       0.79937214 1.08499 0.9536799 0.83858794
000140 7f 74 69 3f
       0.91193384
